{"format": "layers-model", "generatedBy": "keras v2.8.0", "convertedBy": "TensorFlow.js Converter v3.15.0", "modelTopology": {"keras_version": "2.8.0", "backend": "tensorflow", "model_config": {"class_name": "Functional", "config": {"name": "model", "layers": [{"class_name": "InputLayer", "config": {"batch_input_shape": [null, 100, 66], "dtype": "float32", "sparse": false, "ragged": false, "name": "input_1"}, "name": "input_1", "inbound_nodes": []}, {"class_name": "Lambda", "config": {"name": "lambda", "trainable": true, "dtype": "float32", "function": ["4wEAAAAAAAAAAAAAAAEAAAAFAAAAEwAAAHMQAAAAdABqAXwAiABkAWQCjQNTACkDTun/////KQLa\nEm51bV9vcl9zaXplX3NwbGl0c9oEYXhpcykC2gp0ZW5zb3JmbG932gVzcGxpdCkB2gF4KQHaCm5f\nY2hhbm5lbHOpAHoyQzovVXNlcnMvYXJ0aHUvUHljaGFybVByb2plY3RzL0hhbmRHZXN0dXJlL21h\naW4ucHnaCDxsYW1iZGE+IgAAAHMCAAAAEAA=\n", null, [66]], "function_type": "lambda", "module": "__main__", "output_shape": null, "output_shape_type": "raw", "output_shape_module": null, "arguments": {}}, "name": "lambda", "inbound_nodes": [[["input_1", 0, 0, {}]]]}, {"class_name": "Conv1D", "config": {"name": "conv1d", "trainable": true, "batch_input_shape": [null, 100, 1], "dtype": "float32", "filters": 8, "kernel_size": [7], "strides": [1], "padding": "same", "data_format": "channels_last", "dilation_rate": [1], "groups": 1, "activation": "relu", "use_bias": true, "kernel_initializer": {"class_name": "GlorotUniform", "config": {"seed": null}}, "bias_initializer": {"class_name": "Zeros", "config": {}}, "kernel_regularizer": null, "bias_regularizer": null, "activity_regularizer": null, "kernel_constraint": null, "bias_constraint": null}, "name": "conv1d", "inbound_nodes": [[["lambda", 0, 0, {}]]]}, {"class_name": "Conv1D", "config": {"name": "conv1d_3", "trainable": true, "batch_input_shape": [null, 100, 1], "dtype": "float32", "filters": 8, "kernel_size": [3], "strides": [1], "padding": "same", "data_format": "channels_last", "dilation_rate": [1], "groups": 1, "activation": "relu", "use_bias": true, "kernel_initializer": {"class_name": "GlorotUniform", "config": {"seed": null}}, "bias_initializer": {"class_name": "Zeros", "config": {}}, "kernel_regularizer": null, "bias_regularizer": null, "activity_regularizer": null, "kernel_constraint": null, "bias_constraint": null}, "name": "conv1d_3", "inbound_nodes": [[["lambda", 0, 0, {}]]]}, {"class_name": "Conv1D", "config": {"name": "conv1d_6", "trainable": true, "batch_input_shape": [null, 100, 1], "dtype": "float32", "filters": 8, "kernel_size": [7], "strides": [1], "padding": "same", "data_format": "channels_last", "dilation_rate": [1], "groups": 1, "activation": "relu", "use_bias": true, "kernel_initializer": {"class_name": "GlorotUniform", "config": {"seed": null}}, "bias_initializer": {"class_name": "Zeros", "config": {}}, "kernel_regularizer": null, "bias_regularizer": null, "activity_regularizer": null, "kernel_constraint": null, "bias_constraint": null}, "name": "conv1d_6", "inbound_nodes": [[["lambda", 0, 1, {}]]]}, {"class_name": "Conv1D", "config": {"name": "conv1d_9", "trainable": true, "batch_input_shape": [null, 100, 1], "dtype": "float32", "filters": 8, "kernel_size": [3], "strides": [1], "padding": "same", "data_format": "channels_last", "dilation_rate": [1], "groups": 1, "activation": "relu", "use_bias": true, "kernel_initializer": {"class_name": "GlorotUniform", "config": {"seed": null}}, "bias_initializer": {"class_name": "Zeros", "config": {}}, "kernel_regularizer": null, "bias_regularizer": null, "activity_regularizer": null, "kernel_constraint": null, "bias_constraint": null}, "name": "conv1d_9", "inbound_nodes": [[["lambda", 0, 1, {}]]]}, {"class_name": "Conv1D", "config": {"name": "conv1d_12", "trainable": true, "batch_input_shape": [null, 100, 1], "dtype": "float32", "filters": 8, "kernel_size": [7], "strides": [1], "padding": "same", "data_format": "channels_last", "dilation_rate": [1], "groups": 1, "activation": "relu", "use_bias": true, "kernel_initializer": {"class_name": "GlorotUniform", "config": {"seed": null}}, "bias_initializer": {"class_name": "Zeros", "config": {}}, "kernel_regularizer": null, "bias_regularizer": null, "activity_regularizer": null, "kernel_constraint": null, "bias_constraint": null}, "name": "conv1d_12", "inbound_nodes": [[["lambda", 0, 2, {}]]]}, {"class_name": "Conv1D", "config": {"name": "conv1d_15", "trainable": true, "batch_input_shape": [null, 100, 1], "dtype": "float32", "filters": 8, "kernel_size": [3], "strides": [1], "padding": "same", "data_format": "channels_last", "dilation_rate": [1], "groups": 1, "activation": "relu", "use_bias": true, "kernel_initializer": {"class_name": "GlorotUniform", "config": {"seed": null}}, "bias_initializer": {"class_name": "Zeros", "config": {}}, "kernel_regularizer": null, "bias_regularizer": null, "activity_regularizer": null, "kernel_constraint": null, "bias_constraint": null}, "name": "conv1d_15", "inbound_nodes": [[["lambda", 0, 2, {}]]]}, {"class_name": "Conv1D", "config": {"name": "conv1d_18", "trainable": true, "batch_input_shape": [null, 100, 1], "dtype": "float32", "filters": 8, "kernel_size": [7], "strides": [1], "padding": "same", "data_format": "channels_last", "dilation_rate": [1], "groups": 1, "activation": "relu", "use_bias": true, "kernel_initializer": {"class_name": "GlorotUniform", "config": {"seed": null}}, "bias_initializer": {"class_name": "Zeros", "config": {}}, "kernel_regularizer": null, "bias_regularizer": null, "activity_regularizer": null, "kernel_constraint": null, "bias_constraint": null}, "name": "conv1d_18", "inbound_nodes": [[["lambda", 0, 3, {}]]]}, {"class_name": "Conv1D", "config": {"name": "conv1d_21", "trainable": true, "batch_input_shape": [null, 100, 1], "dtype": "float32", "filters": 8, "kernel_size": [3], "strides": [1], "padding": "same", "data_format": "channels_last", "dilation_rate": [1], "groups": 1, "activation": "relu", "use_bias": true, "kernel_initializer": {"class_name": "GlorotUniform", "config": {"seed": null}}, "bias_initializer": {"class_name": "Zeros", "config": {}}, "kernel_regularizer": null, "bias_regularizer": null, "activity_regularizer": null, "kernel_constraint": null, "bias_constraint": null}, "name": "conv1d_21", "inbound_nodes": [[["lambda", 0, 3, {}]]]}, {"class_name": "Conv1D", "config": {"name": "conv1d_24", "trainable": true, "batch_input_shape": [null, 100, 1], "dtype": "float32", "filters": 8, "kernel_size": [7], "strides": [1], "padding": "same", "data_format": "channels_last", "dilation_rate": [1], "groups": 1, "activation": "relu", "use_bias": true, "kernel_initializer": {"class_name": "GlorotUniform", "config": {"seed": null}}, "bias_initializer": {"class_name": "Zeros", "config": {}}, "kernel_regularizer": null, "bias_regularizer": null, "activity_regularizer": null, "kernel_constraint": null, "bias_constraint": null}, "name": "conv1d_24", "inbound_nodes": [[["lambda", 0, 4, {}]]]}, {"class_name": "Conv1D", "config": {"name": "conv1d_27", "trainable": true, "batch_input_shape": [null, 100, 1], "dtype": "float32", "filters": 8, "kernel_size": [3], "strides": [1], "padding": "same", "data_format": "channels_last", "dilation_rate": [1], "groups": 1, "activation": "relu", "use_bias": true, "kernel_initializer": {"class_name": "GlorotUniform", "config": {"seed": null}}, "bias_initializer": {"class_name": "Zeros", "config": {}}, "kernel_regularizer": null, "bias_regularizer": null, "activity_regularizer": null, "kernel_constraint": null, "bias_constraint": null}, "name": "conv1d_27", "inbound_nodes": [[["lambda", 0, 4, {}]]]}, {"class_name": "Conv1D", "config": {"name": "conv1d_30", "trainable": true, "batch_input_shape": [null, 100, 1], "dtype": "float32", "filters": 8, "kernel_size": [7], "strides": [1], "padding": "same", "data_format": "channels_last", "dilation_rate": [1], "groups": 1, "activation": "relu", "use_bias": true, "kernel_initializer": {"class_name": "GlorotUniform", "config": {"seed": null}}, "bias_initializer": {"class_name": "Zeros", "config": {}}, "kernel_regularizer": null, "bias_regularizer": null, "activity_regularizer": null, "kernel_constraint": null, "bias_constraint": null}, "name": "conv1d_30", "inbound_nodes": [[["lambda", 0, 5, {}]]]}, {"class_name": "Conv1D", "config": {"name": "conv1d_33", "trainable": true, "batch_input_shape": [null, 100, 1], "dtype": "float32", "filters": 8, "kernel_size": [3], "strides": [1], "padding": "same", "data_format": "channels_last", "dilation_rate": [1], "groups": 1, "activation": "relu", "use_bias": true, "kernel_initializer": {"class_name": "GlorotUniform", "config": {"seed": null}}, "bias_initializer": {"class_name": "Zeros", "config": {}}, "kernel_regularizer": null, "bias_regularizer": null, "activity_regularizer": null, "kernel_constraint": null, "bias_constraint": null}, "name": "conv1d_33", "inbound_nodes": [[["lambda", 0, 5, {}]]]}, {"class_name": "Conv1D", "config": {"name": "conv1d_36", "trainable": true, "batch_input_shape": [null, 100, 1], "dtype": "float32", "filters": 8, "kernel_size": [7], "strides": [1], "padding": "same", "data_format": "channels_last", "dilation_rate": [1], "groups": 1, "activation": "relu", "use_bias": true, "kernel_initializer": {"class_name": "GlorotUniform", "config": {"seed": null}}, "bias_initializer": {"class_name": "Zeros", "config": {}}, "kernel_regularizer": null, "bias_regularizer": null, "activity_regularizer": null, "kernel_constraint": null, "bias_constraint": null}, "name": "conv1d_36", "inbound_nodes": [[["lambda", 0, 6, {}]]]}, {"class_name": "Conv1D", "config": {"name": "conv1d_39", "trainable": true, "batch_input_shape": [null, 100, 1], "dtype": "float32", "filters": 8, "kernel_size": [3], "strides": [1], "padding": "same", "data_format": "channels_last", "dilation_rate": [1], "groups": 1, "activation": "relu", "use_bias": true, "kernel_initializer": {"class_name": "GlorotUniform", "config": {"seed": null}}, "bias_initializer": {"class_name": "Zeros", "config": {}}, "kernel_regularizer": null, "bias_regularizer": null, "activity_regularizer": null, "kernel_constraint": null, "bias_constraint": null}, "name": "conv1d_39", "inbound_nodes": [[["lambda", 0, 6, {}]]]}, {"class_name": "Conv1D", "config": {"name": "conv1d_42", "trainable": true, "batch_input_shape": [null, 100, 1], "dtype": "float32", "filters": 8, "kernel_size": [7], "strides": [1], "padding": "same", "data_format": "channels_last", "dilation_rate": [1], "groups": 1, "activation": "relu", "use_bias": true, "kernel_initializer": {"class_name": "GlorotUniform", "config": {"seed": null}}, "bias_initializer": {"class_name": "Zeros", "config": {}}, "kernel_regularizer": null, "bias_regularizer": null, "activity_regularizer": null, "kernel_constraint": null, "bias_constraint": null}, "name": "conv1d_42", "inbound_nodes": [[["lambda", 0, 7, {}]]]}, {"class_name": "Conv1D", "config": {"name": "conv1d_45", "trainable": true, "batch_input_shape": [null, 100, 1], "dtype": "float32", "filters": 8, "kernel_size": [3], "strides": [1], "padding": "same", "data_format": "channels_last", "dilation_rate": [1], "groups": 1, "activation": "relu", "use_bias": true, "kernel_initializer": {"class_name": "GlorotUniform", "config": {"seed": null}}, "bias_initializer": {"class_name": "Zeros", "config": {}}, "kernel_regularizer": null, "bias_regularizer": null, "activity_regularizer": null, "kernel_constraint": null, "bias_constraint": null}, "name": "conv1d_45", "inbound_nodes": [[["lambda", 0, 7, {}]]]}, {"class_name": "Conv1D", "config": {"name": "conv1d_48", "trainable": true, "batch_input_shape": [null, 100, 1], "dtype": "float32", "filters": 8, "kernel_size": [7], "strides": [1], "padding": "same", "data_format": "channels_last", "dilation_rate": [1], "groups": 1, "activation": "relu", "use_bias": true, "kernel_initializer": {"class_name": "GlorotUniform", "config": {"seed": null}}, "bias_initializer": {"class_name": "Zeros", "config": {}}, "kernel_regularizer": null, "bias_regularizer": null, "activity_regularizer": null, "kernel_constraint": null, "bias_constraint": null}, "name": "conv1d_48", "inbound_nodes": [[["lambda", 0, 8, {}]]]}, {"class_name": "Conv1D", "config": {"name": "conv1d_51", "trainable": true, "batch_input_shape": [null, 100, 1], "dtype": "float32", "filters": 8, "kernel_size": [3], "strides": [1], "padding": "same", "data_format": "channels_last", "dilation_rate": [1], "groups": 1, "activation": "relu", "use_bias": true, "kernel_initializer": {"class_name": "GlorotUniform", "config": {"seed": null}}, "bias_initializer": {"class_name": "Zeros", "config": {}}, "kernel_regularizer": null, "bias_regularizer": null, "activity_regularizer": null, "kernel_constraint": null, "bias_constraint": null}, "name": "conv1d_51", "inbound_nodes": [[["lambda", 0, 8, {}]]]}, {"class_name": "Conv1D", "config": {"name": "conv1d_54", "trainable": true, "batch_input_shape": [null, 100, 1], "dtype": "float32", "filters": 8, "kernel_size": [7], "strides": [1], "padding": "same", "data_format": "channels_last", "dilation_rate": [1], "groups": 1, "activation": "relu", "use_bias": true, "kernel_initializer": {"class_name": "GlorotUniform", "config": {"seed": null}}, "bias_initializer": {"class_name": "Zeros", "config": {}}, "kernel_regularizer": null, "bias_regularizer": null, "activity_regularizer": null, "kernel_constraint": null, "bias_constraint": null}, "name": "conv1d_54", "inbound_nodes": [[["lambda", 0, 9, {}]]]}, {"class_name": "Conv1D", "config": {"name": "conv1d_57", "trainable": true, "batch_input_shape": [null, 100, 1], "dtype": "float32", "filters": 8, "kernel_size": [3], "strides": [1], "padding": "same", "data_format": "channels_last", "dilation_rate": [1], "groups": 1, "activation": "relu", "use_bias": true, "kernel_initializer": {"class_name": "GlorotUniform", "config": {"seed": null}}, "bias_initializer": {"class_name": "Zeros", "config": {}}, "kernel_regularizer": null, "bias_regularizer": null, "activity_regularizer": null, "kernel_constraint": null, "bias_constraint": null}, "name": "conv1d_57", "inbound_nodes": [[["lambda", 0, 9, {}]]]}, {"class_name": "Conv1D", "config": {"name": "conv1d_60", "trainable": true, "batch_input_shape": [null, 100, 1], "dtype": "float32", "filters": 8, "kernel_size": [7], "strides": [1], "padding": "same", "data_format": "channels_last", "dilation_rate": [1], "groups": 1, "activation": "relu", "use_bias": true, "kernel_initializer": {"class_name": "GlorotUniform", "config": {"seed": null}}, "bias_initializer": {"class_name": "Zeros", "config": {}}, "kernel_regularizer": null, "bias_regularizer": null, "activity_regularizer": null, "kernel_constraint": null, "bias_constraint": null}, "name": "conv1d_60", "inbound_nodes": [[["lambda", 0, 10, {}]]]}, {"class_name": "Conv1D", "config": {"name": "conv1d_63", "trainable": true, "batch_input_shape": [null, 100, 1], "dtype": "float32", "filters": 8, "kernel_size": [3], "strides": [1], "padding": "same", "data_format": "channels_last", "dilation_rate": [1], "groups": 1, "activation": "relu", "use_bias": true, "kernel_initializer": {"class_name": "GlorotUniform", "config": {"seed": null}}, "bias_initializer": {"class_name": "Zeros", "config": {}}, "kernel_regularizer": null, "bias_regularizer": null, "activity_regularizer": null, "kernel_constraint": null, "bias_constraint": null}, "name": "conv1d_63", "inbound_nodes": [[["lambda", 0, 10, {}]]]}, {"class_name": "Conv1D", "config": {"name": "conv1d_66", "trainable": true, "batch_input_shape": [null, 100, 1], "dtype": "float32", "filters": 8, "kernel_size": [7], "strides": [1], "padding": "same", "data_format": "channels_last", "dilation_rate": [1], "groups": 1, "activation": "relu", "use_bias": true, "kernel_initializer": {"class_name": "GlorotUniform", "config": {"seed": null}}, "bias_initializer": {"class_name": "Zeros", "config": {}}, "kernel_regularizer": null, "bias_regularizer": null, "activity_regularizer": null, "kernel_constraint": null, "bias_constraint": null}, "name": "conv1d_66", "inbound_nodes": [[["lambda", 0, 11, {}]]]}, {"class_name": "Conv1D", "config": {"name": "conv1d_69", "trainable": true, "batch_input_shape": [null, 100, 1], "dtype": "float32", "filters": 8, "kernel_size": [3], "strides": [1], "padding": "same", "data_format": "channels_last", "dilation_rate": [1], "groups": 1, "activation": "relu", "use_bias": true, "kernel_initializer": {"class_name": "GlorotUniform", "config": {"seed": null}}, "bias_initializer": {"class_name": "Zeros", "config": {}}, "kernel_regularizer": null, "bias_regularizer": null, "activity_regularizer": null, "kernel_constraint": null, "bias_constraint": null}, "name": "conv1d_69", "inbound_nodes": [[["lambda", 0, 11, {}]]]}, {"class_name": "Conv1D", "config": {"name": "conv1d_72", "trainable": true, "batch_input_shape": [null, 100, 1], "dtype": "float32", "filters": 8, "kernel_size": [7], "strides": [1], "padding": "same", "data_format": "channels_last", "dilation_rate": [1], "groups": 1, "activation": "relu", "use_bias": true, "kernel_initializer": {"class_name": "GlorotUniform", "config": {"seed": null}}, "bias_initializer": {"class_name": "Zeros", "config": {}}, "kernel_regularizer": null, "bias_regularizer": null, "activity_regularizer": null, "kernel_constraint": null, "bias_constraint": null}, "name": "conv1d_72", "inbound_nodes": [[["lambda", 0, 12, {}]]]}, {"class_name": "Conv1D", "config": {"name": "conv1d_75", "trainable": true, "batch_input_shape": [null, 100, 1], "dtype": "float32", "filters": 8, "kernel_size": [3], "strides": [1], "padding": "same", "data_format": "channels_last", "dilation_rate": [1], "groups": 1, "activation": "relu", "use_bias": true, "kernel_initializer": {"class_name": "GlorotUniform", "config": {"seed": null}}, "bias_initializer": {"class_name": "Zeros", "config": {}}, "kernel_regularizer": null, "bias_regularizer": null, "activity_regularizer": null, "kernel_constraint": null, "bias_constraint": null}, "name": "conv1d_75", "inbound_nodes": [[["lambda", 0, 12, {}]]]}, {"class_name": "Conv1D", "config": {"name": "conv1d_78", "trainable": true, "batch_input_shape": [null, 100, 1], "dtype": "float32", "filters": 8, "kernel_size": [7], "strides": [1], "padding": "same", "data_format": "channels_last", "dilation_rate": [1], "groups": 1, "activation": "relu", "use_bias": true, "kernel_initializer": {"class_name": "GlorotUniform", "config": {"seed": null}}, "bias_initializer": {"class_name": "Zeros", "config": {}}, "kernel_regularizer": null, "bias_regularizer": null, "activity_regularizer": null, "kernel_constraint": null, "bias_constraint": null}, "name": "conv1d_78", "inbound_nodes": [[["lambda", 0, 13, {}]]]}, {"class_name": "Conv1D", "config": {"name": "conv1d_81", "trainable": true, "batch_input_shape": [null, 100, 1], "dtype": "float32", "filters": 8, "kernel_size": [3], "strides": [1], "padding": "same", "data_format": "channels_last", "dilation_rate": [1], "groups": 1, "activation": "relu", "use_bias": true, "kernel_initializer": {"class_name": "GlorotUniform", "config": {"seed": null}}, "bias_initializer": {"class_name": "Zeros", "config": {}}, "kernel_regularizer": null, "bias_regularizer": null, "activity_regularizer": null, "kernel_constraint": null, "bias_constraint": null}, "name": "conv1d_81", "inbound_nodes": [[["lambda", 0, 13, {}]]]}, {"class_name": "Conv1D", "config": {"name": "conv1d_84", "trainable": true, "batch_input_shape": [null, 100, 1], "dtype": "float32", "filters": 8, "kernel_size": [7], "strides": [1], "padding": "same", "data_format": "channels_last", "dilation_rate": [1], "groups": 1, "activation": "relu", "use_bias": true, "kernel_initializer": {"class_name": "GlorotUniform", "config": {"seed": null}}, "bias_initializer": {"class_name": "Zeros", "config": {}}, "kernel_regularizer": null, "bias_regularizer": null, "activity_regularizer": null, "kernel_constraint": null, "bias_constraint": null}, "name": "conv1d_84", "inbound_nodes": [[["lambda", 0, 14, {}]]]}, {"class_name": "Conv1D", "config": {"name": "conv1d_87", "trainable": true, "batch_input_shape": [null, 100, 1], "dtype": "float32", "filters": 8, "kernel_size": [3], "strides": [1], "padding": "same", "data_format": "channels_last", "dilation_rate": [1], "groups": 1, "activation": "relu", "use_bias": true, "kernel_initializer": {"class_name": "GlorotUniform", "config": {"seed": null}}, "bias_initializer": {"class_name": "Zeros", "config": {}}, "kernel_regularizer": null, "bias_regularizer": null, "activity_regularizer": null, "kernel_constraint": null, "bias_constraint": null}, "name": "conv1d_87", "inbound_nodes": [[["lambda", 0, 14, {}]]]}, {"class_name": "Conv1D", "config": {"name": "conv1d_90", "trainable": true, "batch_input_shape": [null, 100, 1], "dtype": "float32", "filters": 8, "kernel_size": [7], "strides": [1], "padding": "same", "data_format": "channels_last", "dilation_rate": [1], "groups": 1, "activation": "relu", "use_bias": true, "kernel_initializer": {"class_name": "GlorotUniform", "config": {"seed": null}}, "bias_initializer": {"class_name": "Zeros", "config": {}}, "kernel_regularizer": null, "bias_regularizer": null, "activity_regularizer": null, "kernel_constraint": null, "bias_constraint": null}, "name": "conv1d_90", "inbound_nodes": [[["lambda", 0, 15, {}]]]}, {"class_name": "Conv1D", "config": {"name": "conv1d_93", "trainable": true, "batch_input_shape": [null, 100, 1], "dtype": "float32", "filters": 8, "kernel_size": [3], "strides": [1], "padding": "same", "data_format": "channels_last", "dilation_rate": [1], "groups": 1, "activation": "relu", "use_bias": true, "kernel_initializer": {"class_name": "GlorotUniform", "config": {"seed": null}}, "bias_initializer": {"class_name": "Zeros", "config": {}}, "kernel_regularizer": null, "bias_regularizer": null, "activity_regularizer": null, "kernel_constraint": null, "bias_constraint": null}, "name": "conv1d_93", "inbound_nodes": [[["lambda", 0, 15, {}]]]}, {"class_name": "Conv1D", "config": {"name": "conv1d_96", "trainable": true, "batch_input_shape": [null, 100, 1], "dtype": "float32", "filters": 8, "kernel_size": [7], "strides": [1], "padding": "same", "data_format": "channels_last", "dilation_rate": [1], "groups": 1, "activation": "relu", "use_bias": true, "kernel_initializer": {"class_name": "GlorotUniform", "config": {"seed": null}}, "bias_initializer": {"class_name": "Zeros", "config": {}}, "kernel_regularizer": null, "bias_regularizer": null, "activity_regularizer": null, "kernel_constraint": null, "bias_constraint": null}, "name": "conv1d_96", "inbound_nodes": [[["lambda", 0, 16, {}]]]}, {"class_name": "Conv1D", "config": {"name": "conv1d_99", "trainable": true, "batch_input_shape": [null, 100, 1], "dtype": "float32", "filters": 8, "kernel_size": [3], "strides": [1], "padding": "same", "data_format": "channels_last", "dilation_rate": [1], "groups": 1, "activation": "relu", "use_bias": true, "kernel_initializer": {"class_name": "GlorotUniform", "config": {"seed": null}}, "bias_initializer": {"class_name": "Zeros", "config": {}}, "kernel_regularizer": null, "bias_regularizer": null, "activity_regularizer": null, "kernel_constraint": null, "bias_constraint": null}, "name": "conv1d_99", "inbound_nodes": [[["lambda", 0, 16, {}]]]}, {"class_name": "Conv1D", "config": {"name": "conv1d_102", "trainable": true, "batch_input_shape": [null, 100, 1], "dtype": "float32", "filters": 8, "kernel_size": [7], "strides": [1], "padding": "same", "data_format": "channels_last", "dilation_rate": [1], "groups": 1, "activation": "relu", "use_bias": true, "kernel_initializer": {"class_name": "GlorotUniform", "config": {"seed": null}}, "bias_initializer": {"class_name": "Zeros", "config": {}}, "kernel_regularizer": null, "bias_regularizer": null, "activity_regularizer": null, "kernel_constraint": null, "bias_constraint": null}, "name": "conv1d_102", "inbound_nodes": [[["lambda", 0, 17, {}]]]}, {"class_name": "Conv1D", "config": {"name": "conv1d_105", "trainable": true, "batch_input_shape": [null, 100, 1], "dtype": "float32", "filters": 8, "kernel_size": [3], "strides": [1], "padding": "same", "data_format": "channels_last", "dilation_rate": [1], "groups": 1, "activation": "relu", "use_bias": true, "kernel_initializer": {"class_name": "GlorotUniform", "config": {"seed": null}}, "bias_initializer": {"class_name": "Zeros", "config": {}}, "kernel_regularizer": null, "bias_regularizer": null, "activity_regularizer": null, "kernel_constraint": null, "bias_constraint": null}, "name": "conv1d_105", "inbound_nodes": [[["lambda", 0, 17, {}]]]}, {"class_name": "Conv1D", "config": {"name": "conv1d_108", "trainable": true, "batch_input_shape": [null, 100, 1], "dtype": "float32", "filters": 8, "kernel_size": [7], "strides": [1], "padding": "same", "data_format": "channels_last", "dilation_rate": [1], "groups": 1, "activation": "relu", "use_bias": true, "kernel_initializer": {"class_name": "GlorotUniform", "config": {"seed": null}}, "bias_initializer": {"class_name": "Zeros", "config": {}}, "kernel_regularizer": null, "bias_regularizer": null, "activity_regularizer": null, "kernel_constraint": null, "bias_constraint": null}, "name": "conv1d_108", "inbound_nodes": [[["lambda", 0, 18, {}]]]}, {"class_name": "Conv1D", "config": {"name": "conv1d_111", "trainable": true, "batch_input_shape": [null, 100, 1], "dtype": "float32", "filters": 8, "kernel_size": [3], "strides": [1], "padding": "same", "data_format": "channels_last", "dilation_rate": [1], "groups": 1, "activation": "relu", "use_bias": true, "kernel_initializer": {"class_name": "GlorotUniform", "config": {"seed": null}}, "bias_initializer": {"class_name": "Zeros", "config": {}}, "kernel_regularizer": null, "bias_regularizer": null, "activity_regularizer": null, "kernel_constraint": null, "bias_constraint": null}, "name": "conv1d_111", "inbound_nodes": [[["lambda", 0, 18, {}]]]}, {"class_name": "Conv1D", "config": {"name": "conv1d_114", "trainable": true, "batch_input_shape": [null, 100, 1], "dtype": "float32", "filters": 8, "kernel_size": [7], "strides": [1], "padding": "same", "data_format": "channels_last", "dilation_rate": [1], "groups": 1, "activation": "relu", "use_bias": true, "kernel_initializer": {"class_name": "GlorotUniform", "config": {"seed": null}}, "bias_initializer": {"class_name": "Zeros", "config": {}}, "kernel_regularizer": null, "bias_regularizer": null, "activity_regularizer": null, "kernel_constraint": null, "bias_constraint": null}, "name": "conv1d_114", "inbound_nodes": [[["lambda", 0, 19, {}]]]}, {"class_name": "Conv1D", "config": {"name": "conv1d_117", "trainable": true, "batch_input_shape": [null, 100, 1], "dtype": "float32", "filters": 8, "kernel_size": [3], "strides": [1], "padding": "same", "data_format": "channels_last", "dilation_rate": [1], "groups": 1, "activation": "relu", "use_bias": true, "kernel_initializer": {"class_name": "GlorotUniform", "config": {"seed": null}}, "bias_initializer": {"class_name": "Zeros", "config": {}}, "kernel_regularizer": null, "bias_regularizer": null, "activity_regularizer": null, "kernel_constraint": null, "bias_constraint": null}, "name": "conv1d_117", "inbound_nodes": [[["lambda", 0, 19, {}]]]}, {"class_name": "Conv1D", "config": {"name": "conv1d_120", "trainable": true, "batch_input_shape": [null, 100, 1], "dtype": "float32", "filters": 8, "kernel_size": [7], "strides": [1], "padding": "same", "data_format": "channels_last", "dilation_rate": [1], "groups": 1, "activation": "relu", "use_bias": true, "kernel_initializer": {"class_name": "GlorotUniform", "config": {"seed": null}}, "bias_initializer": {"class_name": "Zeros", "config": {}}, "kernel_regularizer": null, "bias_regularizer": null, "activity_regularizer": null, "kernel_constraint": null, "bias_constraint": null}, "name": "conv1d_120", "inbound_nodes": [[["lambda", 0, 20, {}]]]}, {"class_name": "Conv1D", "config": {"name": "conv1d_123", "trainable": true, "batch_input_shape": [null, 100, 1], "dtype": "float32", "filters": 8, "kernel_size": [3], "strides": [1], "padding": "same", "data_format": "channels_last", "dilation_rate": [1], "groups": 1, "activation": "relu", "use_bias": true, "kernel_initializer": {"class_name": "GlorotUniform", "config": {"seed": null}}, "bias_initializer": {"class_name": "Zeros", "config": {}}, "kernel_regularizer": null, "bias_regularizer": null, "activity_regularizer": null, "kernel_constraint": null, "bias_constraint": null}, "name": "conv1d_123", "inbound_nodes": [[["lambda", 0, 20, {}]]]}, {"class_name": "Conv1D", "config": {"name": "conv1d_126", "trainable": true, "batch_input_shape": [null, 100, 1], "dtype": "float32", "filters": 8, "kernel_size": [7], "strides": [1], "padding": "same", "data_format": "channels_last", "dilation_rate": [1], "groups": 1, "activation": "relu", "use_bias": true, "kernel_initializer": {"class_name": "GlorotUniform", "config": {"seed": null}}, "bias_initializer": {"class_name": "Zeros", "config": {}}, "kernel_regularizer": null, "bias_regularizer": null, "activity_regularizer": null, "kernel_constraint": null, "bias_constraint": null}, "name": "conv1d_126", "inbound_nodes": [[["lambda", 0, 21, {}]]]}, {"class_name": "Conv1D", "config": {"name": "conv1d_129", "trainable": true, "batch_input_shape": [null, 100, 1], "dtype": "float32", "filters": 8, "kernel_size": [3], "strides": [1], "padding": "same", "data_format": "channels_last", "dilation_rate": [1], "groups": 1, "activation": "relu", "use_bias": true, "kernel_initializer": {"class_name": "GlorotUniform", "config": {"seed": null}}, "bias_initializer": {"class_name": "Zeros", "config": {}}, "kernel_regularizer": null, "bias_regularizer": null, "activity_regularizer": null, "kernel_constraint": null, "bias_constraint": null}, "name": "conv1d_129", "inbound_nodes": [[["lambda", 0, 21, {}]]]}, {"class_name": "Conv1D", "config": {"name": "conv1d_132", "trainable": true, "batch_input_shape": [null, 100, 1], "dtype": "float32", "filters": 8, "kernel_size": [7], "strides": [1], "padding": "same", "data_format": "channels_last", "dilation_rate": [1], "groups": 1, "activation": "relu", "use_bias": true, "kernel_initializer": {"class_name": "GlorotUniform", "config": {"seed": null}}, "bias_initializer": {"class_name": "Zeros", "config": {}}, "kernel_regularizer": null, "bias_regularizer": null, "activity_regularizer": null, "kernel_constraint": null, "bias_constraint": null}, "name": "conv1d_132", "inbound_nodes": [[["lambda", 0, 22, {}]]]}, {"class_name": "Conv1D", "config": {"name": "conv1d_135", "trainable": true, "batch_input_shape": [null, 100, 1], "dtype": "float32", "filters": 8, "kernel_size": [3], "strides": [1], "padding": "same", "data_format": "channels_last", "dilation_rate": [1], "groups": 1, "activation": "relu", "use_bias": true, "kernel_initializer": {"class_name": "GlorotUniform", "config": {"seed": null}}, "bias_initializer": {"class_name": "Zeros", "config": {}}, "kernel_regularizer": null, "bias_regularizer": null, "activity_regularizer": null, "kernel_constraint": null, "bias_constraint": null}, "name": "conv1d_135", "inbound_nodes": [[["lambda", 0, 22, {}]]]}, {"class_name": "Conv1D", "config": {"name": "conv1d_138", "trainable": true, "batch_input_shape": [null, 100, 1], "dtype": "float32", "filters": 8, "kernel_size": [7], "strides": [1], "padding": "same", "data_format": "channels_last", "dilation_rate": [1], "groups": 1, "activation": "relu", "use_bias": true, "kernel_initializer": {"class_name": "GlorotUniform", "config": {"seed": null}}, "bias_initializer": {"class_name": "Zeros", "config": {}}, "kernel_regularizer": null, "bias_regularizer": null, "activity_regularizer": null, "kernel_constraint": null, "bias_constraint": null}, "name": "conv1d_138", "inbound_nodes": [[["lambda", 0, 23, {}]]]}, {"class_name": "Conv1D", "config": {"name": "conv1d_141", "trainable": true, "batch_input_shape": [null, 100, 1], "dtype": "float32", "filters": 8, "kernel_size": [3], "strides": [1], "padding": "same", "data_format": "channels_last", "dilation_rate": [1], "groups": 1, "activation": "relu", "use_bias": true, "kernel_initializer": {"class_name": "GlorotUniform", "config": {"seed": null}}, "bias_initializer": {"class_name": "Zeros", "config": {}}, "kernel_regularizer": null, "bias_regularizer": null, "activity_regularizer": null, "kernel_constraint": null, "bias_constraint": null}, "name": "conv1d_141", "inbound_nodes": [[["lambda", 0, 23, {}]]]}, {"class_name": "Conv1D", "config": {"name": "conv1d_144", "trainable": true, "batch_input_shape": [null, 100, 1], "dtype": "float32", "filters": 8, "kernel_size": [7], "strides": [1], "padding": "same", "data_format": "channels_last", "dilation_rate": [1], "groups": 1, "activation": "relu", "use_bias": true, "kernel_initializer": {"class_name": "GlorotUniform", "config": {"seed": null}}, "bias_initializer": {"class_name": "Zeros", "config": {}}, "kernel_regularizer": null, "bias_regularizer": null, "activity_regularizer": null, "kernel_constraint": null, "bias_constraint": null}, "name": "conv1d_144", "inbound_nodes": [[["lambda", 0, 24, {}]]]}, {"class_name": "Conv1D", "config": {"name": "conv1d_147", "trainable": true, "batch_input_shape": [null, 100, 1], "dtype": "float32", "filters": 8, "kernel_size": [3], "strides": [1], "padding": "same", "data_format": "channels_last", "dilation_rate": [1], "groups": 1, "activation": "relu", "use_bias": true, "kernel_initializer": {"class_name": "GlorotUniform", "config": {"seed": null}}, "bias_initializer": {"class_name": "Zeros", "config": {}}, "kernel_regularizer": null, "bias_regularizer": null, "activity_regularizer": null, "kernel_constraint": null, "bias_constraint": null}, "name": "conv1d_147", "inbound_nodes": [[["lambda", 0, 24, {}]]]}, {"class_name": "Conv1D", "config": {"name": "conv1d_150", "trainable": true, "batch_input_shape": [null, 100, 1], "dtype": "float32", "filters": 8, "kernel_size": [7], "strides": [1], "padding": "same", "data_format": "channels_last", "dilation_rate": [1], "groups": 1, "activation": "relu", "use_bias": true, "kernel_initializer": {"class_name": "GlorotUniform", "config": {"seed": null}}, "bias_initializer": {"class_name": "Zeros", "config": {}}, "kernel_regularizer": null, "bias_regularizer": null, "activity_regularizer": null, "kernel_constraint": null, "bias_constraint": null}, "name": "conv1d_150", "inbound_nodes": [[["lambda", 0, 25, {}]]]}, {"class_name": "Conv1D", "config": {"name": "conv1d_153", "trainable": true, "batch_input_shape": [null, 100, 1], "dtype": "float32", "filters": 8, "kernel_size": [3], "strides": [1], "padding": "same", "data_format": "channels_last", "dilation_rate": [1], "groups": 1, "activation": "relu", "use_bias": true, "kernel_initializer": {"class_name": "GlorotUniform", "config": {"seed": null}}, "bias_initializer": {"class_name": "Zeros", "config": {}}, "kernel_regularizer": null, "bias_regularizer": null, "activity_regularizer": null, "kernel_constraint": null, "bias_constraint": null}, "name": "conv1d_153", "inbound_nodes": [[["lambda", 0, 25, {}]]]}, {"class_name": "Conv1D", "config": {"name": "conv1d_156", "trainable": true, "batch_input_shape": [null, 100, 1], "dtype": "float32", "filters": 8, "kernel_size": [7], "strides": [1], "padding": "same", "data_format": "channels_last", "dilation_rate": [1], "groups": 1, "activation": "relu", "use_bias": true, "kernel_initializer": {"class_name": "GlorotUniform", "config": {"seed": null}}, "bias_initializer": {"class_name": "Zeros", "config": {}}, "kernel_regularizer": null, "bias_regularizer": null, "activity_regularizer": null, "kernel_constraint": null, "bias_constraint": null}, "name": "conv1d_156", "inbound_nodes": [[["lambda", 0, 26, {}]]]}, {"class_name": "Conv1D", "config": {"name": "conv1d_159", "trainable": true, "batch_input_shape": [null, 100, 1], "dtype": "float32", "filters": 8, "kernel_size": [3], "strides": [1], "padding": "same", "data_format": "channels_last", "dilation_rate": [1], "groups": 1, "activation": "relu", "use_bias": true, "kernel_initializer": {"class_name": "GlorotUniform", "config": {"seed": null}}, "bias_initializer": {"class_name": "Zeros", "config": {}}, "kernel_regularizer": null, "bias_regularizer": null, "activity_regularizer": null, "kernel_constraint": null, "bias_constraint": null}, "name": "conv1d_159", "inbound_nodes": [[["lambda", 0, 26, {}]]]}, {"class_name": "Conv1D", "config": {"name": "conv1d_162", "trainable": true, "batch_input_shape": [null, 100, 1], "dtype": "float32", "filters": 8, "kernel_size": [7], "strides": [1], "padding": "same", "data_format": "channels_last", "dilation_rate": [1], "groups": 1, "activation": "relu", "use_bias": true, "kernel_initializer": {"class_name": "GlorotUniform", "config": {"seed": null}}, "bias_initializer": {"class_name": "Zeros", "config": {}}, "kernel_regularizer": null, "bias_regularizer": null, "activity_regularizer": null, "kernel_constraint": null, "bias_constraint": null}, "name": "conv1d_162", "inbound_nodes": [[["lambda", 0, 27, {}]]]}, {"class_name": "Conv1D", "config": {"name": "conv1d_165", "trainable": true, "batch_input_shape": [null, 100, 1], "dtype": "float32", "filters": 8, "kernel_size": [3], "strides": [1], "padding": "same", "data_format": "channels_last", "dilation_rate": [1], "groups": 1, "activation": "relu", "use_bias": true, "kernel_initializer": {"class_name": "GlorotUniform", "config": {"seed": null}}, "bias_initializer": {"class_name": "Zeros", "config": {}}, "kernel_regularizer": null, "bias_regularizer": null, "activity_regularizer": null, "kernel_constraint": null, "bias_constraint": null}, "name": "conv1d_165", "inbound_nodes": [[["lambda", 0, 27, {}]]]}, {"class_name": "Conv1D", "config": {"name": "conv1d_168", "trainable": true, "batch_input_shape": [null, 100, 1], "dtype": "float32", "filters": 8, "kernel_size": [7], "strides": [1], "padding": "same", "data_format": "channels_last", "dilation_rate": [1], "groups": 1, "activation": "relu", "use_bias": true, "kernel_initializer": {"class_name": "GlorotUniform", "config": {"seed": null}}, "bias_initializer": {"class_name": "Zeros", "config": {}}, "kernel_regularizer": null, "bias_regularizer": null, "activity_regularizer": null, "kernel_constraint": null, "bias_constraint": null}, "name": "conv1d_168", "inbound_nodes": [[["lambda", 0, 28, {}]]]}, {"class_name": "Conv1D", "config": {"name": "conv1d_171", "trainable": true, "batch_input_shape": [null, 100, 1], "dtype": "float32", "filters": 8, "kernel_size": [3], "strides": [1], "padding": "same", "data_format": "channels_last", "dilation_rate": [1], "groups": 1, "activation": "relu", "use_bias": true, "kernel_initializer": {"class_name": "GlorotUniform", "config": {"seed": null}}, "bias_initializer": {"class_name": "Zeros", "config": {}}, "kernel_regularizer": null, "bias_regularizer": null, "activity_regularizer": null, "kernel_constraint": null, "bias_constraint": null}, "name": "conv1d_171", "inbound_nodes": [[["lambda", 0, 28, {}]]]}, {"class_name": "Conv1D", "config": {"name": "conv1d_174", "trainable": true, "batch_input_shape": [null, 100, 1], "dtype": "float32", "filters": 8, "kernel_size": [7], "strides": [1], "padding": "same", "data_format": "channels_last", "dilation_rate": [1], "groups": 1, "activation": "relu", "use_bias": true, "kernel_initializer": {"class_name": "GlorotUniform", "config": {"seed": null}}, "bias_initializer": {"class_name": "Zeros", "config": {}}, "kernel_regularizer": null, "bias_regularizer": null, "activity_regularizer": null, "kernel_constraint": null, "bias_constraint": null}, "name": "conv1d_174", "inbound_nodes": [[["lambda", 0, 29, {}]]]}, {"class_name": "Conv1D", "config": {"name": "conv1d_177", "trainable": true, "batch_input_shape": [null, 100, 1], "dtype": "float32", "filters": 8, "kernel_size": [3], "strides": [1], "padding": "same", "data_format": "channels_last", "dilation_rate": [1], "groups": 1, "activation": "relu", "use_bias": true, "kernel_initializer": {"class_name": "GlorotUniform", "config": {"seed": null}}, "bias_initializer": {"class_name": "Zeros", "config": {}}, "kernel_regularizer": null, "bias_regularizer": null, "activity_regularizer": null, "kernel_constraint": null, "bias_constraint": null}, "name": "conv1d_177", "inbound_nodes": [[["lambda", 0, 29, {}]]]}, {"class_name": "Conv1D", "config": {"name": "conv1d_180", "trainable": true, "batch_input_shape": [null, 100, 1], "dtype": "float32", "filters": 8, "kernel_size": [7], "strides": [1], "padding": "same", "data_format": "channels_last", "dilation_rate": [1], "groups": 1, "activation": "relu", "use_bias": true, "kernel_initializer": {"class_name": "GlorotUniform", "config": {"seed": null}}, "bias_initializer": {"class_name": "Zeros", "config": {}}, "kernel_regularizer": null, "bias_regularizer": null, "activity_regularizer": null, "kernel_constraint": null, "bias_constraint": null}, "name": "conv1d_180", "inbound_nodes": [[["lambda", 0, 30, {}]]]}, {"class_name": "Conv1D", "config": {"name": "conv1d_183", "trainable": true, "batch_input_shape": [null, 100, 1], "dtype": "float32", "filters": 8, "kernel_size": [3], "strides": [1], "padding": "same", "data_format": "channels_last", "dilation_rate": [1], "groups": 1, "activation": "relu", "use_bias": true, "kernel_initializer": {"class_name": "GlorotUniform", "config": {"seed": null}}, "bias_initializer": {"class_name": "Zeros", "config": {}}, "kernel_regularizer": null, "bias_regularizer": null, "activity_regularizer": null, "kernel_constraint": null, "bias_constraint": null}, "name": "conv1d_183", "inbound_nodes": [[["lambda", 0, 30, {}]]]}, {"class_name": "Conv1D", "config": {"name": "conv1d_186", "trainable": true, "batch_input_shape": [null, 100, 1], "dtype": "float32", "filters": 8, "kernel_size": [7], "strides": [1], "padding": "same", "data_format": "channels_last", "dilation_rate": [1], "groups": 1, "activation": "relu", "use_bias": true, "kernel_initializer": {"class_name": "GlorotUniform", "config": {"seed": null}}, "bias_initializer": {"class_name": "Zeros", "config": {}}, "kernel_regularizer": null, "bias_regularizer": null, "activity_regularizer": null, "kernel_constraint": null, "bias_constraint": null}, "name": "conv1d_186", "inbound_nodes": [[["lambda", 0, 31, {}]]]}, {"class_name": "Conv1D", "config": {"name": "conv1d_189", "trainable": true, "batch_input_shape": [null, 100, 1], "dtype": "float32", "filters": 8, "kernel_size": [3], "strides": [1], "padding": "same", "data_format": "channels_last", "dilation_rate": [1], "groups": 1, "activation": "relu", "use_bias": true, "kernel_initializer": {"class_name": "GlorotUniform", "config": {"seed": null}}, "bias_initializer": {"class_name": "Zeros", "config": {}}, "kernel_regularizer": null, "bias_regularizer": null, "activity_regularizer": null, "kernel_constraint": null, "bias_constraint": null}, "name": "conv1d_189", "inbound_nodes": [[["lambda", 0, 31, {}]]]}, {"class_name": "Conv1D", "config": {"name": "conv1d_192", "trainable": true, "batch_input_shape": [null, 100, 1], "dtype": "float32", "filters": 8, "kernel_size": [7], "strides": [1], "padding": "same", "data_format": "channels_last", "dilation_rate": [1], "groups": 1, "activation": "relu", "use_bias": true, "kernel_initializer": {"class_name": "GlorotUniform", "config": {"seed": null}}, "bias_initializer": {"class_name": "Zeros", "config": {}}, "kernel_regularizer": null, "bias_regularizer": null, "activity_regularizer": null, "kernel_constraint": null, "bias_constraint": null}, "name": "conv1d_192", "inbound_nodes": [[["lambda", 0, 32, {}]]]}, {"class_name": "Conv1D", "config": {"name": "conv1d_195", "trainable": true, "batch_input_shape": [null, 100, 1], "dtype": "float32", "filters": 8, "kernel_size": [3], "strides": [1], "padding": "same", "data_format": "channels_last", "dilation_rate": [1], "groups": 1, "activation": "relu", "use_bias": true, "kernel_initializer": {"class_name": "GlorotUniform", "config": {"seed": null}}, "bias_initializer": {"class_name": "Zeros", "config": {}}, "kernel_regularizer": null, "bias_regularizer": null, "activity_regularizer": null, "kernel_constraint": null, "bias_constraint": null}, "name": "conv1d_195", "inbound_nodes": [[["lambda", 0, 32, {}]]]}, {"class_name": "Conv1D", "config": {"name": "conv1d_198", "trainable": true, "batch_input_shape": [null, 100, 1], "dtype": "float32", "filters": 8, "kernel_size": [7], "strides": [1], "padding": "same", "data_format": "channels_last", "dilation_rate": [1], "groups": 1, "activation": "relu", "use_bias": true, "kernel_initializer": {"class_name": "GlorotUniform", "config": {"seed": null}}, "bias_initializer": {"class_name": "Zeros", "config": {}}, "kernel_regularizer": null, "bias_regularizer": null, "activity_regularizer": null, "kernel_constraint": null, "bias_constraint": null}, "name": "conv1d_198", "inbound_nodes": [[["lambda", 0, 33, {}]]]}, {"class_name": "Conv1D", "config": {"name": "conv1d_201", "trainable": true, "batch_input_shape": [null, 100, 1], "dtype": "float32", "filters": 8, "kernel_size": [3], "strides": [1], "padding": "same", "data_format": "channels_last", "dilation_rate": [1], "groups": 1, "activation": "relu", "use_bias": true, "kernel_initializer": {"class_name": "GlorotUniform", "config": {"seed": null}}, "bias_initializer": {"class_name": "Zeros", "config": {}}, "kernel_regularizer": null, "bias_regularizer": null, "activity_regularizer": null, "kernel_constraint": null, "bias_constraint": null}, "name": "conv1d_201", "inbound_nodes": [[["lambda", 0, 33, {}]]]}, {"class_name": "Conv1D", "config": {"name": "conv1d_204", "trainable": true, "batch_input_shape": [null, 100, 1], "dtype": "float32", "filters": 8, "kernel_size": [7], "strides": [1], "padding": "same", "data_format": "channels_last", "dilation_rate": [1], "groups": 1, "activation": "relu", "use_bias": true, "kernel_initializer": {"class_name": "GlorotUniform", "config": {"seed": null}}, "bias_initializer": {"class_name": "Zeros", "config": {}}, "kernel_regularizer": null, "bias_regularizer": null, "activity_regularizer": null, "kernel_constraint": null, "bias_constraint": null}, "name": "conv1d_204", "inbound_nodes": [[["lambda", 0, 34, {}]]]}, {"class_name": "Conv1D", "config": {"name": "conv1d_207", "trainable": true, "batch_input_shape": [null, 100, 1], "dtype": "float32", "filters": 8, "kernel_size": [3], "strides": [1], "padding": "same", "data_format": "channels_last", "dilation_rate": [1], "groups": 1, "activation": "relu", "use_bias": true, "kernel_initializer": {"class_name": "GlorotUniform", "config": {"seed": null}}, "bias_initializer": {"class_name": "Zeros", "config": {}}, "kernel_regularizer": null, "bias_regularizer": null, "activity_regularizer": null, "kernel_constraint": null, "bias_constraint": null}, "name": "conv1d_207", "inbound_nodes": [[["lambda", 0, 34, {}]]]}, {"class_name": "Conv1D", "config": {"name": "conv1d_210", "trainable": true, "batch_input_shape": [null, 100, 1], "dtype": "float32", "filters": 8, "kernel_size": [7], "strides": [1], "padding": "same", "data_format": "channels_last", "dilation_rate": [1], "groups": 1, "activation": "relu", "use_bias": true, "kernel_initializer": {"class_name": "GlorotUniform", "config": {"seed": null}}, "bias_initializer": {"class_name": "Zeros", "config": {}}, "kernel_regularizer": null, "bias_regularizer": null, "activity_regularizer": null, "kernel_constraint": null, "bias_constraint": null}, "name": "conv1d_210", "inbound_nodes": [[["lambda", 0, 35, {}]]]}, {"class_name": "Conv1D", "config": {"name": "conv1d_213", "trainable": true, "batch_input_shape": [null, 100, 1], "dtype": "float32", "filters": 8, "kernel_size": [3], "strides": [1], "padding": "same", "data_format": "channels_last", "dilation_rate": [1], "groups": 1, "activation": "relu", "use_bias": true, "kernel_initializer": {"class_name": "GlorotUniform", "config": {"seed": null}}, "bias_initializer": {"class_name": "Zeros", "config": {}}, "kernel_regularizer": null, "bias_regularizer": null, "activity_regularizer": null, "kernel_constraint": null, "bias_constraint": null}, "name": "conv1d_213", "inbound_nodes": [[["lambda", 0, 35, {}]]]}, {"class_name": "Conv1D", "config": {"name": "conv1d_216", "trainable": true, "batch_input_shape": [null, 100, 1], "dtype": "float32", "filters": 8, "kernel_size": [7], "strides": [1], "padding": "same", "data_format": "channels_last", "dilation_rate": [1], "groups": 1, "activation": "relu", "use_bias": true, "kernel_initializer": {"class_name": "GlorotUniform", "config": {"seed": null}}, "bias_initializer": {"class_name": "Zeros", "config": {}}, "kernel_regularizer": null, "bias_regularizer": null, "activity_regularizer": null, "kernel_constraint": null, "bias_constraint": null}, "name": "conv1d_216", "inbound_nodes": [[["lambda", 0, 36, {}]]]}, {"class_name": "Conv1D", "config": {"name": "conv1d_219", "trainable": true, "batch_input_shape": [null, 100, 1], "dtype": "float32", "filters": 8, "kernel_size": [3], "strides": [1], "padding": "same", "data_format": "channels_last", "dilation_rate": [1], "groups": 1, "activation": "relu", "use_bias": true, "kernel_initializer": {"class_name": "GlorotUniform", "config": {"seed": null}}, "bias_initializer": {"class_name": "Zeros", "config": {}}, "kernel_regularizer": null, "bias_regularizer": null, "activity_regularizer": null, "kernel_constraint": null, "bias_constraint": null}, "name": "conv1d_219", "inbound_nodes": [[["lambda", 0, 36, {}]]]}, {"class_name": "Conv1D", "config": {"name": "conv1d_222", "trainable": true, "batch_input_shape": [null, 100, 1], "dtype": "float32", "filters": 8, "kernel_size": [7], "strides": [1], "padding": "same", "data_format": "channels_last", "dilation_rate": [1], "groups": 1, "activation": "relu", "use_bias": true, "kernel_initializer": {"class_name": "GlorotUniform", "config": {"seed": null}}, "bias_initializer": {"class_name": "Zeros", "config": {}}, "kernel_regularizer": null, "bias_regularizer": null, "activity_regularizer": null, "kernel_constraint": null, "bias_constraint": null}, "name": "conv1d_222", "inbound_nodes": [[["lambda", 0, 37, {}]]]}, {"class_name": "Conv1D", "config": {"name": "conv1d_225", "trainable": true, "batch_input_shape": [null, 100, 1], "dtype": "float32", "filters": 8, "kernel_size": [3], "strides": [1], "padding": "same", "data_format": "channels_last", "dilation_rate": [1], "groups": 1, "activation": "relu", "use_bias": true, "kernel_initializer": {"class_name": "GlorotUniform", "config": {"seed": null}}, "bias_initializer": {"class_name": "Zeros", "config": {}}, "kernel_regularizer": null, "bias_regularizer": null, "activity_regularizer": null, "kernel_constraint": null, "bias_constraint": null}, "name": "conv1d_225", "inbound_nodes": [[["lambda", 0, 37, {}]]]}, {"class_name": "Conv1D", "config": {"name": "conv1d_228", "trainable": true, "batch_input_shape": [null, 100, 1], "dtype": "float32", "filters": 8, "kernel_size": [7], "strides": [1], "padding": "same", "data_format": "channels_last", "dilation_rate": [1], "groups": 1, "activation": "relu", "use_bias": true, "kernel_initializer": {"class_name": "GlorotUniform", "config": {"seed": null}}, "bias_initializer": {"class_name": "Zeros", "config": {}}, "kernel_regularizer": null, "bias_regularizer": null, "activity_regularizer": null, "kernel_constraint": null, "bias_constraint": null}, "name": "conv1d_228", "inbound_nodes": [[["lambda", 0, 38, {}]]]}, {"class_name": "Conv1D", "config": {"name": "conv1d_231", "trainable": true, "batch_input_shape": [null, 100, 1], "dtype": "float32", "filters": 8, "kernel_size": [3], "strides": [1], "padding": "same", "data_format": "channels_last", "dilation_rate": [1], "groups": 1, "activation": "relu", "use_bias": true, "kernel_initializer": {"class_name": "GlorotUniform", "config": {"seed": null}}, "bias_initializer": {"class_name": "Zeros", "config": {}}, "kernel_regularizer": null, "bias_regularizer": null, "activity_regularizer": null, "kernel_constraint": null, "bias_constraint": null}, "name": "conv1d_231", "inbound_nodes": [[["lambda", 0, 38, {}]]]}, {"class_name": "Conv1D", "config": {"name": "conv1d_234", "trainable": true, "batch_input_shape": [null, 100, 1], "dtype": "float32", "filters": 8, "kernel_size": [7], "strides": [1], "padding": "same", "data_format": "channels_last", "dilation_rate": [1], "groups": 1, "activation": "relu", "use_bias": true, "kernel_initializer": {"class_name": "GlorotUniform", "config": {"seed": null}}, "bias_initializer": {"class_name": "Zeros", "config": {}}, "kernel_regularizer": null, "bias_regularizer": null, "activity_regularizer": null, "kernel_constraint": null, "bias_constraint": null}, "name": "conv1d_234", "inbound_nodes": [[["lambda", 0, 39, {}]]]}, {"class_name": "Conv1D", "config": {"name": "conv1d_237", "trainable": true, "batch_input_shape": [null, 100, 1], "dtype": "float32", "filters": 8, "kernel_size": [3], "strides": [1], "padding": "same", "data_format": "channels_last", "dilation_rate": [1], "groups": 1, "activation": "relu", "use_bias": true, "kernel_initializer": {"class_name": "GlorotUniform", "config": {"seed": null}}, "bias_initializer": {"class_name": "Zeros", "config": {}}, "kernel_regularizer": null, "bias_regularizer": null, "activity_regularizer": null, "kernel_constraint": null, "bias_constraint": null}, "name": "conv1d_237", "inbound_nodes": [[["lambda", 0, 39, {}]]]}, {"class_name": "Conv1D", "config": {"name": "conv1d_240", "trainable": true, "batch_input_shape": [null, 100, 1], "dtype": "float32", "filters": 8, "kernel_size": [7], "strides": [1], "padding": "same", "data_format": "channels_last", "dilation_rate": [1], "groups": 1, "activation": "relu", "use_bias": true, "kernel_initializer": {"class_name": "GlorotUniform", "config": {"seed": null}}, "bias_initializer": {"class_name": "Zeros", "config": {}}, "kernel_regularizer": null, "bias_regularizer": null, "activity_regularizer": null, "kernel_constraint": null, "bias_constraint": null}, "name": "conv1d_240", "inbound_nodes": [[["lambda", 0, 40, {}]]]}, {"class_name": "Conv1D", "config": {"name": "conv1d_243", "trainable": true, "batch_input_shape": [null, 100, 1], "dtype": "float32", "filters": 8, "kernel_size": [3], "strides": [1], "padding": "same", "data_format": "channels_last", "dilation_rate": [1], "groups": 1, "activation": "relu", "use_bias": true, "kernel_initializer": {"class_name": "GlorotUniform", "config": {"seed": null}}, "bias_initializer": {"class_name": "Zeros", "config": {}}, "kernel_regularizer": null, "bias_regularizer": null, "activity_regularizer": null, "kernel_constraint": null, "bias_constraint": null}, "name": "conv1d_243", "inbound_nodes": [[["lambda", 0, 40, {}]]]}, {"class_name": "Conv1D", "config": {"name": "conv1d_246", "trainable": true, "batch_input_shape": [null, 100, 1], "dtype": "float32", "filters": 8, "kernel_size": [7], "strides": [1], "padding": "same", "data_format": "channels_last", "dilation_rate": [1], "groups": 1, "activation": "relu", "use_bias": true, "kernel_initializer": {"class_name": "GlorotUniform", "config": {"seed": null}}, "bias_initializer": {"class_name": "Zeros", "config": {}}, "kernel_regularizer": null, "bias_regularizer": null, "activity_regularizer": null, "kernel_constraint": null, "bias_constraint": null}, "name": "conv1d_246", "inbound_nodes": [[["lambda", 0, 41, {}]]]}, {"class_name": "Conv1D", "config": {"name": "conv1d_249", "trainable": true, "batch_input_shape": [null, 100, 1], "dtype": "float32", "filters": 8, "kernel_size": [3], "strides": [1], "padding": "same", "data_format": "channels_last", "dilation_rate": [1], "groups": 1, "activation": "relu", "use_bias": true, "kernel_initializer": {"class_name": "GlorotUniform", "config": {"seed": null}}, "bias_initializer": {"class_name": "Zeros", "config": {}}, "kernel_regularizer": null, "bias_regularizer": null, "activity_regularizer": null, "kernel_constraint": null, "bias_constraint": null}, "name": "conv1d_249", "inbound_nodes": [[["lambda", 0, 41, {}]]]}, {"class_name": "Conv1D", "config": {"name": "conv1d_252", "trainable": true, "batch_input_shape": [null, 100, 1], "dtype": "float32", "filters": 8, "kernel_size": [7], "strides": [1], "padding": "same", "data_format": "channels_last", "dilation_rate": [1], "groups": 1, "activation": "relu", "use_bias": true, "kernel_initializer": {"class_name": "GlorotUniform", "config": {"seed": null}}, "bias_initializer": {"class_name": "Zeros", "config": {}}, "kernel_regularizer": null, "bias_regularizer": null, "activity_regularizer": null, "kernel_constraint": null, "bias_constraint": null}, "name": "conv1d_252", "inbound_nodes": [[["lambda", 0, 42, {}]]]}, {"class_name": "Conv1D", "config": {"name": "conv1d_255", "trainable": true, "batch_input_shape": [null, 100, 1], "dtype": "float32", "filters": 8, "kernel_size": [3], "strides": [1], "padding": "same", "data_format": "channels_last", "dilation_rate": [1], "groups": 1, "activation": "relu", "use_bias": true, "kernel_initializer": {"class_name": "GlorotUniform", "config": {"seed": null}}, "bias_initializer": {"class_name": "Zeros", "config": {}}, "kernel_regularizer": null, "bias_regularizer": null, "activity_regularizer": null, "kernel_constraint": null, "bias_constraint": null}, "name": "conv1d_255", "inbound_nodes": [[["lambda", 0, 42, {}]]]}, {"class_name": "Conv1D", "config": {"name": "conv1d_258", "trainable": true, "batch_input_shape": [null, 100, 1], "dtype": "float32", "filters": 8, "kernel_size": [7], "strides": [1], "padding": "same", "data_format": "channels_last", "dilation_rate": [1], "groups": 1, "activation": "relu", "use_bias": true, "kernel_initializer": {"class_name": "GlorotUniform", "config": {"seed": null}}, "bias_initializer": {"class_name": "Zeros", "config": {}}, "kernel_regularizer": null, "bias_regularizer": null, "activity_regularizer": null, "kernel_constraint": null, "bias_constraint": null}, "name": "conv1d_258", "inbound_nodes": [[["lambda", 0, 43, {}]]]}, {"class_name": "Conv1D", "config": {"name": "conv1d_261", "trainable": true, "batch_input_shape": [null, 100, 1], "dtype": "float32", "filters": 8, "kernel_size": [3], "strides": [1], "padding": "same", "data_format": "channels_last", "dilation_rate": [1], "groups": 1, "activation": "relu", "use_bias": true, "kernel_initializer": {"class_name": "GlorotUniform", "config": {"seed": null}}, "bias_initializer": {"class_name": "Zeros", "config": {}}, "kernel_regularizer": null, "bias_regularizer": null, "activity_regularizer": null, "kernel_constraint": null, "bias_constraint": null}, "name": "conv1d_261", "inbound_nodes": [[["lambda", 0, 43, {}]]]}, {"class_name": "Conv1D", "config": {"name": "conv1d_264", "trainable": true, "batch_input_shape": [null, 100, 1], "dtype": "float32", "filters": 8, "kernel_size": [7], "strides": [1], "padding": "same", "data_format": "channels_last", "dilation_rate": [1], "groups": 1, "activation": "relu", "use_bias": true, "kernel_initializer": {"class_name": "GlorotUniform", "config": {"seed": null}}, "bias_initializer": {"class_name": "Zeros", "config": {}}, "kernel_regularizer": null, "bias_regularizer": null, "activity_regularizer": null, "kernel_constraint": null, "bias_constraint": null}, "name": "conv1d_264", "inbound_nodes": [[["lambda", 0, 44, {}]]]}, {"class_name": "Conv1D", "config": {"name": "conv1d_267", "trainable": true, "batch_input_shape": [null, 100, 1], "dtype": "float32", "filters": 8, "kernel_size": [3], "strides": [1], "padding": "same", "data_format": "channels_last", "dilation_rate": [1], "groups": 1, "activation": "relu", "use_bias": true, "kernel_initializer": {"class_name": "GlorotUniform", "config": {"seed": null}}, "bias_initializer": {"class_name": "Zeros", "config": {}}, "kernel_regularizer": null, "bias_regularizer": null, "activity_regularizer": null, "kernel_constraint": null, "bias_constraint": null}, "name": "conv1d_267", "inbound_nodes": [[["lambda", 0, 44, {}]]]}, {"class_name": "Conv1D", "config": {"name": "conv1d_270", "trainable": true, "batch_input_shape": [null, 100, 1], "dtype": "float32", "filters": 8, "kernel_size": [7], "strides": [1], "padding": "same", "data_format": "channels_last", "dilation_rate": [1], "groups": 1, "activation": "relu", "use_bias": true, "kernel_initializer": {"class_name": "GlorotUniform", "config": {"seed": null}}, "bias_initializer": {"class_name": "Zeros", "config": {}}, "kernel_regularizer": null, "bias_regularizer": null, "activity_regularizer": null, "kernel_constraint": null, "bias_constraint": null}, "name": "conv1d_270", "inbound_nodes": [[["lambda", 0, 45, {}]]]}, {"class_name": "Conv1D", "config": {"name": "conv1d_273", "trainable": true, "batch_input_shape": [null, 100, 1], "dtype": "float32", "filters": 8, "kernel_size": [3], "strides": [1], "padding": "same", "data_format": "channels_last", "dilation_rate": [1], "groups": 1, "activation": "relu", "use_bias": true, "kernel_initializer": {"class_name": "GlorotUniform", "config": {"seed": null}}, "bias_initializer": {"class_name": "Zeros", "config": {}}, "kernel_regularizer": null, "bias_regularizer": null, "activity_regularizer": null, "kernel_constraint": null, "bias_constraint": null}, "name": "conv1d_273", "inbound_nodes": [[["lambda", 0, 45, {}]]]}, {"class_name": "Conv1D", "config": {"name": "conv1d_276", "trainable": true, "batch_input_shape": [null, 100, 1], "dtype": "float32", "filters": 8, "kernel_size": [7], "strides": [1], "padding": "same", "data_format": "channels_last", "dilation_rate": [1], "groups": 1, "activation": "relu", "use_bias": true, "kernel_initializer": {"class_name": "GlorotUniform", "config": {"seed": null}}, "bias_initializer": {"class_name": "Zeros", "config": {}}, "kernel_regularizer": null, "bias_regularizer": null, "activity_regularizer": null, "kernel_constraint": null, "bias_constraint": null}, "name": "conv1d_276", "inbound_nodes": [[["lambda", 0, 46, {}]]]}, {"class_name": "Conv1D", "config": {"name": "conv1d_279", "trainable": true, "batch_input_shape": [null, 100, 1], "dtype": "float32", "filters": 8, "kernel_size": [3], "strides": [1], "padding": "same", "data_format": "channels_last", "dilation_rate": [1], "groups": 1, "activation": "relu", "use_bias": true, "kernel_initializer": {"class_name": "GlorotUniform", "config": {"seed": null}}, "bias_initializer": {"class_name": "Zeros", "config": {}}, "kernel_regularizer": null, "bias_regularizer": null, "activity_regularizer": null, "kernel_constraint": null, "bias_constraint": null}, "name": "conv1d_279", "inbound_nodes": [[["lambda", 0, 46, {}]]]}, {"class_name": "Conv1D", "config": {"name": "conv1d_282", "trainable": true, "batch_input_shape": [null, 100, 1], "dtype": "float32", "filters": 8, "kernel_size": [7], "strides": [1], "padding": "same", "data_format": "channels_last", "dilation_rate": [1], "groups": 1, "activation": "relu", "use_bias": true, "kernel_initializer": {"class_name": "GlorotUniform", "config": {"seed": null}}, "bias_initializer": {"class_name": "Zeros", "config": {}}, "kernel_regularizer": null, "bias_regularizer": null, "activity_regularizer": null, "kernel_constraint": null, "bias_constraint": null}, "name": "conv1d_282", "inbound_nodes": [[["lambda", 0, 47, {}]]]}, {"class_name": "Conv1D", "config": {"name": "conv1d_285", "trainable": true, "batch_input_shape": [null, 100, 1], "dtype": "float32", "filters": 8, "kernel_size": [3], "strides": [1], "padding": "same", "data_format": "channels_last", "dilation_rate": [1], "groups": 1, "activation": "relu", "use_bias": true, "kernel_initializer": {"class_name": "GlorotUniform", "config": {"seed": null}}, "bias_initializer": {"class_name": "Zeros", "config": {}}, "kernel_regularizer": null, "bias_regularizer": null, "activity_regularizer": null, "kernel_constraint": null, "bias_constraint": null}, "name": "conv1d_285", "inbound_nodes": [[["lambda", 0, 47, {}]]]}, {"class_name": "Conv1D", "config": {"name": "conv1d_288", "trainable": true, "batch_input_shape": [null, 100, 1], "dtype": "float32", "filters": 8, "kernel_size": [7], "strides": [1], "padding": "same", "data_format": "channels_last", "dilation_rate": [1], "groups": 1, "activation": "relu", "use_bias": true, "kernel_initializer": {"class_name": "GlorotUniform", "config": {"seed": null}}, "bias_initializer": {"class_name": "Zeros", "config": {}}, "kernel_regularizer": null, "bias_regularizer": null, "activity_regularizer": null, "kernel_constraint": null, "bias_constraint": null}, "name": "conv1d_288", "inbound_nodes": [[["lambda", 0, 48, {}]]]}, {"class_name": "Conv1D", "config": {"name": "conv1d_291", "trainable": true, "batch_input_shape": [null, 100, 1], "dtype": "float32", "filters": 8, "kernel_size": [3], "strides": [1], "padding": "same", "data_format": "channels_last", "dilation_rate": [1], "groups": 1, "activation": "relu", "use_bias": true, "kernel_initializer": {"class_name": "GlorotUniform", "config": {"seed": null}}, "bias_initializer": {"class_name": "Zeros", "config": {}}, "kernel_regularizer": null, "bias_regularizer": null, "activity_regularizer": null, "kernel_constraint": null, "bias_constraint": null}, "name": "conv1d_291", "inbound_nodes": [[["lambda", 0, 48, {}]]]}, {"class_name": "Conv1D", "config": {"name": "conv1d_294", "trainable": true, "batch_input_shape": [null, 100, 1], "dtype": "float32", "filters": 8, "kernel_size": [7], "strides": [1], "padding": "same", "data_format": "channels_last", "dilation_rate": [1], "groups": 1, "activation": "relu", "use_bias": true, "kernel_initializer": {"class_name": "GlorotUniform", "config": {"seed": null}}, "bias_initializer": {"class_name": "Zeros", "config": {}}, "kernel_regularizer": null, "bias_regularizer": null, "activity_regularizer": null, "kernel_constraint": null, "bias_constraint": null}, "name": "conv1d_294", "inbound_nodes": [[["lambda", 0, 49, {}]]]}, {"class_name": "Conv1D", "config": {"name": "conv1d_297", "trainable": true, "batch_input_shape": [null, 100, 1], "dtype": "float32", "filters": 8, "kernel_size": [3], "strides": [1], "padding": "same", "data_format": "channels_last", "dilation_rate": [1], "groups": 1, "activation": "relu", "use_bias": true, "kernel_initializer": {"class_name": "GlorotUniform", "config": {"seed": null}}, "bias_initializer": {"class_name": "Zeros", "config": {}}, "kernel_regularizer": null, "bias_regularizer": null, "activity_regularizer": null, "kernel_constraint": null, "bias_constraint": null}, "name": "conv1d_297", "inbound_nodes": [[["lambda", 0, 49, {}]]]}, {"class_name": "Conv1D", "config": {"name": "conv1d_300", "trainable": true, "batch_input_shape": [null, 100, 1], "dtype": "float32", "filters": 8, "kernel_size": [7], "strides": [1], "padding": "same", "data_format": "channels_last", "dilation_rate": [1], "groups": 1, "activation": "relu", "use_bias": true, "kernel_initializer": {"class_name": "GlorotUniform", "config": {"seed": null}}, "bias_initializer": {"class_name": "Zeros", "config": {}}, "kernel_regularizer": null, "bias_regularizer": null, "activity_regularizer": null, "kernel_constraint": null, "bias_constraint": null}, "name": "conv1d_300", "inbound_nodes": [[["lambda", 0, 50, {}]]]}, {"class_name": "Conv1D", "config": {"name": "conv1d_303", "trainable": true, "batch_input_shape": [null, 100, 1], "dtype": "float32", "filters": 8, "kernel_size": [3], "strides": [1], "padding": "same", "data_format": "channels_last", "dilation_rate": [1], "groups": 1, "activation": "relu", "use_bias": true, "kernel_initializer": {"class_name": "GlorotUniform", "config": {"seed": null}}, "bias_initializer": {"class_name": "Zeros", "config": {}}, "kernel_regularizer": null, "bias_regularizer": null, "activity_regularizer": null, "kernel_constraint": null, "bias_constraint": null}, "name": "conv1d_303", "inbound_nodes": [[["lambda", 0, 50, {}]]]}, {"class_name": "Conv1D", "config": {"name": "conv1d_306", "trainable": true, "batch_input_shape": [null, 100, 1], "dtype": "float32", "filters": 8, "kernel_size": [7], "strides": [1], "padding": "same", "data_format": "channels_last", "dilation_rate": [1], "groups": 1, "activation": "relu", "use_bias": true, "kernel_initializer": {"class_name": "GlorotUniform", "config": {"seed": null}}, "bias_initializer": {"class_name": "Zeros", "config": {}}, "kernel_regularizer": null, "bias_regularizer": null, "activity_regularizer": null, "kernel_constraint": null, "bias_constraint": null}, "name": "conv1d_306", "inbound_nodes": [[["lambda", 0, 51, {}]]]}, {"class_name": "Conv1D", "config": {"name": "conv1d_309", "trainable": true, "batch_input_shape": [null, 100, 1], "dtype": "float32", "filters": 8, "kernel_size": [3], "strides": [1], "padding": "same", "data_format": "channels_last", "dilation_rate": [1], "groups": 1, "activation": "relu", "use_bias": true, "kernel_initializer": {"class_name": "GlorotUniform", "config": {"seed": null}}, "bias_initializer": {"class_name": "Zeros", "config": {}}, "kernel_regularizer": null, "bias_regularizer": null, "activity_regularizer": null, "kernel_constraint": null, "bias_constraint": null}, "name": "conv1d_309", "inbound_nodes": [[["lambda", 0, 51, {}]]]}, {"class_name": "Conv1D", "config": {"name": "conv1d_312", "trainable": true, "batch_input_shape": [null, 100, 1], "dtype": "float32", "filters": 8, "kernel_size": [7], "strides": [1], "padding": "same", "data_format": "channels_last", "dilation_rate": [1], "groups": 1, "activation": "relu", "use_bias": true, "kernel_initializer": {"class_name": "GlorotUniform", "config": {"seed": null}}, "bias_initializer": {"class_name": "Zeros", "config": {}}, "kernel_regularizer": null, "bias_regularizer": null, "activity_regularizer": null, "kernel_constraint": null, "bias_constraint": null}, "name": "conv1d_312", "inbound_nodes": [[["lambda", 0, 52, {}]]]}, {"class_name": "Conv1D", "config": {"name": "conv1d_315", "trainable": true, "batch_input_shape": [null, 100, 1], "dtype": "float32", "filters": 8, "kernel_size": [3], "strides": [1], "padding": "same", "data_format": "channels_last", "dilation_rate": [1], "groups": 1, "activation": "relu", "use_bias": true, "kernel_initializer": {"class_name": "GlorotUniform", "config": {"seed": null}}, "bias_initializer": {"class_name": "Zeros", "config": {}}, "kernel_regularizer": null, "bias_regularizer": null, "activity_regularizer": null, "kernel_constraint": null, "bias_constraint": null}, "name": "conv1d_315", "inbound_nodes": [[["lambda", 0, 52, {}]]]}, {"class_name": "Conv1D", "config": {"name": "conv1d_318", "trainable": true, "batch_input_shape": [null, 100, 1], "dtype": "float32", "filters": 8, "kernel_size": [7], "strides": [1], "padding": "same", "data_format": "channels_last", "dilation_rate": [1], "groups": 1, "activation": "relu", "use_bias": true, "kernel_initializer": {"class_name": "GlorotUniform", "config": {"seed": null}}, "bias_initializer": {"class_name": "Zeros", "config": {}}, "kernel_regularizer": null, "bias_regularizer": null, "activity_regularizer": null, "kernel_constraint": null, "bias_constraint": null}, "name": "conv1d_318", "inbound_nodes": [[["lambda", 0, 53, {}]]]}, {"class_name": "Conv1D", "config": {"name": "conv1d_321", "trainable": true, "batch_input_shape": [null, 100, 1], "dtype": "float32", "filters": 8, "kernel_size": [3], "strides": [1], "padding": "same", "data_format": "channels_last", "dilation_rate": [1], "groups": 1, "activation": "relu", "use_bias": true, "kernel_initializer": {"class_name": "GlorotUniform", "config": {"seed": null}}, "bias_initializer": {"class_name": "Zeros", "config": {}}, "kernel_regularizer": null, "bias_regularizer": null, "activity_regularizer": null, "kernel_constraint": null, "bias_constraint": null}, "name": "conv1d_321", "inbound_nodes": [[["lambda", 0, 53, {}]]]}, {"class_name": "Conv1D", "config": {"name": "conv1d_324", "trainable": true, "batch_input_shape": [null, 100, 1], "dtype": "float32", "filters": 8, "kernel_size": [7], "strides": [1], "padding": "same", "data_format": "channels_last", "dilation_rate": [1], "groups": 1, "activation": "relu", "use_bias": true, "kernel_initializer": {"class_name": "GlorotUniform", "config": {"seed": null}}, "bias_initializer": {"class_name": "Zeros", "config": {}}, "kernel_regularizer": null, "bias_regularizer": null, "activity_regularizer": null, "kernel_constraint": null, "bias_constraint": null}, "name": "conv1d_324", "inbound_nodes": [[["lambda", 0, 54, {}]]]}, {"class_name": "Conv1D", "config": {"name": "conv1d_327", "trainable": true, "batch_input_shape": [null, 100, 1], "dtype": "float32", "filters": 8, "kernel_size": [3], "strides": [1], "padding": "same", "data_format": "channels_last", "dilation_rate": [1], "groups": 1, "activation": "relu", "use_bias": true, "kernel_initializer": {"class_name": "GlorotUniform", "config": {"seed": null}}, "bias_initializer": {"class_name": "Zeros", "config": {}}, "kernel_regularizer": null, "bias_regularizer": null, "activity_regularizer": null, "kernel_constraint": null, "bias_constraint": null}, "name": "conv1d_327", "inbound_nodes": [[["lambda", 0, 54, {}]]]}, {"class_name": "Conv1D", "config": {"name": "conv1d_330", "trainable": true, "batch_input_shape": [null, 100, 1], "dtype": "float32", "filters": 8, "kernel_size": [7], "strides": [1], "padding": "same", "data_format": "channels_last", "dilation_rate": [1], "groups": 1, "activation": "relu", "use_bias": true, "kernel_initializer": {"class_name": "GlorotUniform", "config": {"seed": null}}, "bias_initializer": {"class_name": "Zeros", "config": {}}, "kernel_regularizer": null, "bias_regularizer": null, "activity_regularizer": null, "kernel_constraint": null, "bias_constraint": null}, "name": "conv1d_330", "inbound_nodes": [[["lambda", 0, 55, {}]]]}, {"class_name": "Conv1D", "config": {"name": "conv1d_333", "trainable": true, "batch_input_shape": [null, 100, 1], "dtype": "float32", "filters": 8, "kernel_size": [3], "strides": [1], "padding": "same", "data_format": "channels_last", "dilation_rate": [1], "groups": 1, "activation": "relu", "use_bias": true, "kernel_initializer": {"class_name": "GlorotUniform", "config": {"seed": null}}, "bias_initializer": {"class_name": "Zeros", "config": {}}, "kernel_regularizer": null, "bias_regularizer": null, "activity_regularizer": null, "kernel_constraint": null, "bias_constraint": null}, "name": "conv1d_333", "inbound_nodes": [[["lambda", 0, 55, {}]]]}, {"class_name": "Conv1D", "config": {"name": "conv1d_336", "trainable": true, "batch_input_shape": [null, 100, 1], "dtype": "float32", "filters": 8, "kernel_size": [7], "strides": [1], "padding": "same", "data_format": "channels_last", "dilation_rate": [1], "groups": 1, "activation": "relu", "use_bias": true, "kernel_initializer": {"class_name": "GlorotUniform", "config": {"seed": null}}, "bias_initializer": {"class_name": "Zeros", "config": {}}, "kernel_regularizer": null, "bias_regularizer": null, "activity_regularizer": null, "kernel_constraint": null, "bias_constraint": null}, "name": "conv1d_336", "inbound_nodes": [[["lambda", 0, 56, {}]]]}, {"class_name": "Conv1D", "config": {"name": "conv1d_339", "trainable": true, "batch_input_shape": [null, 100, 1], "dtype": "float32", "filters": 8, "kernel_size": [3], "strides": [1], "padding": "same", "data_format": "channels_last", "dilation_rate": [1], "groups": 1, "activation": "relu", "use_bias": true, "kernel_initializer": {"class_name": "GlorotUniform", "config": {"seed": null}}, "bias_initializer": {"class_name": "Zeros", "config": {}}, "kernel_regularizer": null, "bias_regularizer": null, "activity_regularizer": null, "kernel_constraint": null, "bias_constraint": null}, "name": "conv1d_339", "inbound_nodes": [[["lambda", 0, 56, {}]]]}, {"class_name": "Conv1D", "config": {"name": "conv1d_342", "trainable": true, "batch_input_shape": [null, 100, 1], "dtype": "float32", "filters": 8, "kernel_size": [7], "strides": [1], "padding": "same", "data_format": "channels_last", "dilation_rate": [1], "groups": 1, "activation": "relu", "use_bias": true, "kernel_initializer": {"class_name": "GlorotUniform", "config": {"seed": null}}, "bias_initializer": {"class_name": "Zeros", "config": {}}, "kernel_regularizer": null, "bias_regularizer": null, "activity_regularizer": null, "kernel_constraint": null, "bias_constraint": null}, "name": "conv1d_342", "inbound_nodes": [[["lambda", 0, 57, {}]]]}, {"class_name": "Conv1D", "config": {"name": "conv1d_345", "trainable": true, "batch_input_shape": [null, 100, 1], "dtype": "float32", "filters": 8, "kernel_size": [3], "strides": [1], "padding": "same", "data_format": "channels_last", "dilation_rate": [1], "groups": 1, "activation": "relu", "use_bias": true, "kernel_initializer": {"class_name": "GlorotUniform", "config": {"seed": null}}, "bias_initializer": {"class_name": "Zeros", "config": {}}, "kernel_regularizer": null, "bias_regularizer": null, "activity_regularizer": null, "kernel_constraint": null, "bias_constraint": null}, "name": "conv1d_345", "inbound_nodes": [[["lambda", 0, 57, {}]]]}, {"class_name": "Conv1D", "config": {"name": "conv1d_348", "trainable": true, "batch_input_shape": [null, 100, 1], "dtype": "float32", "filters": 8, "kernel_size": [7], "strides": [1], "padding": "same", "data_format": "channels_last", "dilation_rate": [1], "groups": 1, "activation": "relu", "use_bias": true, "kernel_initializer": {"class_name": "GlorotUniform", "config": {"seed": null}}, "bias_initializer": {"class_name": "Zeros", "config": {}}, "kernel_regularizer": null, "bias_regularizer": null, "activity_regularizer": null, "kernel_constraint": null, "bias_constraint": null}, "name": "conv1d_348", "inbound_nodes": [[["lambda", 0, 58, {}]]]}, {"class_name": "Conv1D", "config": {"name": "conv1d_351", "trainable": true, "batch_input_shape": [null, 100, 1], "dtype": "float32", "filters": 8, "kernel_size": [3], "strides": [1], "padding": "same", "data_format": "channels_last", "dilation_rate": [1], "groups": 1, "activation": "relu", "use_bias": true, "kernel_initializer": {"class_name": "GlorotUniform", "config": {"seed": null}}, "bias_initializer": {"class_name": "Zeros", "config": {}}, "kernel_regularizer": null, "bias_regularizer": null, "activity_regularizer": null, "kernel_constraint": null, "bias_constraint": null}, "name": "conv1d_351", "inbound_nodes": [[["lambda", 0, 58, {}]]]}, {"class_name": "Conv1D", "config": {"name": "conv1d_354", "trainable": true, "batch_input_shape": [null, 100, 1], "dtype": "float32", "filters": 8, "kernel_size": [7], "strides": [1], "padding": "same", "data_format": "channels_last", "dilation_rate": [1], "groups": 1, "activation": "relu", "use_bias": true, "kernel_initializer": {"class_name": "GlorotUniform", "config": {"seed": null}}, "bias_initializer": {"class_name": "Zeros", "config": {}}, "kernel_regularizer": null, "bias_regularizer": null, "activity_regularizer": null, "kernel_constraint": null, "bias_constraint": null}, "name": "conv1d_354", "inbound_nodes": [[["lambda", 0, 59, {}]]]}, {"class_name": "Conv1D", "config": {"name": "conv1d_357", "trainable": true, "batch_input_shape": [null, 100, 1], "dtype": "float32", "filters": 8, "kernel_size": [3], "strides": [1], "padding": "same", "data_format": "channels_last", "dilation_rate": [1], "groups": 1, "activation": "relu", "use_bias": true, "kernel_initializer": {"class_name": "GlorotUniform", "config": {"seed": null}}, "bias_initializer": {"class_name": "Zeros", "config": {}}, "kernel_regularizer": null, "bias_regularizer": null, "activity_regularizer": null, "kernel_constraint": null, "bias_constraint": null}, "name": "conv1d_357", "inbound_nodes": [[["lambda", 0, 59, {}]]]}, {"class_name": "Conv1D", "config": {"name": "conv1d_360", "trainable": true, "batch_input_shape": [null, 100, 1], "dtype": "float32", "filters": 8, "kernel_size": [7], "strides": [1], "padding": "same", "data_format": "channels_last", "dilation_rate": [1], "groups": 1, "activation": "relu", "use_bias": true, "kernel_initializer": {"class_name": "GlorotUniform", "config": {"seed": null}}, "bias_initializer": {"class_name": "Zeros", "config": {}}, "kernel_regularizer": null, "bias_regularizer": null, "activity_regularizer": null, "kernel_constraint": null, "bias_constraint": null}, "name": "conv1d_360", "inbound_nodes": [[["lambda", 0, 60, {}]]]}, {"class_name": "Conv1D", "config": {"name": "conv1d_363", "trainable": true, "batch_input_shape": [null, 100, 1], "dtype": "float32", "filters": 8, "kernel_size": [3], "strides": [1], "padding": "same", "data_format": "channels_last", "dilation_rate": [1], "groups": 1, "activation": "relu", "use_bias": true, "kernel_initializer": {"class_name": "GlorotUniform", "config": {"seed": null}}, "bias_initializer": {"class_name": "Zeros", "config": {}}, "kernel_regularizer": null, "bias_regularizer": null, "activity_regularizer": null, "kernel_constraint": null, "bias_constraint": null}, "name": "conv1d_363", "inbound_nodes": [[["lambda", 0, 60, {}]]]}, {"class_name": "Conv1D", "config": {"name": "conv1d_366", "trainable": true, "batch_input_shape": [null, 100, 1], "dtype": "float32", "filters": 8, "kernel_size": [7], "strides": [1], "padding": "same", "data_format": "channels_last", "dilation_rate": [1], "groups": 1, "activation": "relu", "use_bias": true, "kernel_initializer": {"class_name": "GlorotUniform", "config": {"seed": null}}, "bias_initializer": {"class_name": "Zeros", "config": {}}, "kernel_regularizer": null, "bias_regularizer": null, "activity_regularizer": null, "kernel_constraint": null, "bias_constraint": null}, "name": "conv1d_366", "inbound_nodes": [[["lambda", 0, 61, {}]]]}, {"class_name": "Conv1D", "config": {"name": "conv1d_369", "trainable": true, "batch_input_shape": [null, 100, 1], "dtype": "float32", "filters": 8, "kernel_size": [3], "strides": [1], "padding": "same", "data_format": "channels_last", "dilation_rate": [1], "groups": 1, "activation": "relu", "use_bias": true, "kernel_initializer": {"class_name": "GlorotUniform", "config": {"seed": null}}, "bias_initializer": {"class_name": "Zeros", "config": {}}, "kernel_regularizer": null, "bias_regularizer": null, "activity_regularizer": null, "kernel_constraint": null, "bias_constraint": null}, "name": "conv1d_369", "inbound_nodes": [[["lambda", 0, 61, {}]]]}, {"class_name": "Conv1D", "config": {"name": "conv1d_372", "trainable": true, "batch_input_shape": [null, 100, 1], "dtype": "float32", "filters": 8, "kernel_size": [7], "strides": [1], "padding": "same", "data_format": "channels_last", "dilation_rate": [1], "groups": 1, "activation": "relu", "use_bias": true, "kernel_initializer": {"class_name": "GlorotUniform", "config": {"seed": null}}, "bias_initializer": {"class_name": "Zeros", "config": {}}, "kernel_regularizer": null, "bias_regularizer": null, "activity_regularizer": null, "kernel_constraint": null, "bias_constraint": null}, "name": "conv1d_372", "inbound_nodes": [[["lambda", 0, 62, {}]]]}, {"class_name": "Conv1D", "config": {"name": "conv1d_375", "trainable": true, "batch_input_shape": [null, 100, 1], "dtype": "float32", "filters": 8, "kernel_size": [3], "strides": [1], "padding": "same", "data_format": "channels_last", "dilation_rate": [1], "groups": 1, "activation": "relu", "use_bias": true, "kernel_initializer": {"class_name": "GlorotUniform", "config": {"seed": null}}, "bias_initializer": {"class_name": "Zeros", "config": {}}, "kernel_regularizer": null, "bias_regularizer": null, "activity_regularizer": null, "kernel_constraint": null, "bias_constraint": null}, "name": "conv1d_375", "inbound_nodes": [[["lambda", 0, 62, {}]]]}, {"class_name": "Conv1D", "config": {"name": "conv1d_378", "trainable": true, "batch_input_shape": [null, 100, 1], "dtype": "float32", "filters": 8, "kernel_size": [7], "strides": [1], "padding": "same", "data_format": "channels_last", "dilation_rate": [1], "groups": 1, "activation": "relu", "use_bias": true, "kernel_initializer": {"class_name": "GlorotUniform", "config": {"seed": null}}, "bias_initializer": {"class_name": "Zeros", "config": {}}, "kernel_regularizer": null, "bias_regularizer": null, "activity_regularizer": null, "kernel_constraint": null, "bias_constraint": null}, "name": "conv1d_378", "inbound_nodes": [[["lambda", 0, 63, {}]]]}, {"class_name": "Conv1D", "config": {"name": "conv1d_381", "trainable": true, "batch_input_shape": [null, 100, 1], "dtype": "float32", "filters": 8, "kernel_size": [3], "strides": [1], "padding": "same", "data_format": "channels_last", "dilation_rate": [1], "groups": 1, "activation": "relu", "use_bias": true, "kernel_initializer": {"class_name": "GlorotUniform", "config": {"seed": null}}, "bias_initializer": {"class_name": "Zeros", "config": {}}, "kernel_regularizer": null, "bias_regularizer": null, "activity_regularizer": null, "kernel_constraint": null, "bias_constraint": null}, "name": "conv1d_381", "inbound_nodes": [[["lambda", 0, 63, {}]]]}, {"class_name": "Conv1D", "config": {"name": "conv1d_384", "trainable": true, "batch_input_shape": [null, 100, 1], "dtype": "float32", "filters": 8, "kernel_size": [7], "strides": [1], "padding": "same", "data_format": "channels_last", "dilation_rate": [1], "groups": 1, "activation": "relu", "use_bias": true, "kernel_initializer": {"class_name": "GlorotUniform", "config": {"seed": null}}, "bias_initializer": {"class_name": "Zeros", "config": {}}, "kernel_regularizer": null, "bias_regularizer": null, "activity_regularizer": null, "kernel_constraint": null, "bias_constraint": null}, "name": "conv1d_384", "inbound_nodes": [[["lambda", 0, 64, {}]]]}, {"class_name": "Conv1D", "config": {"name": "conv1d_387", "trainable": true, "batch_input_shape": [null, 100, 1], "dtype": "float32", "filters": 8, "kernel_size": [3], "strides": [1], "padding": "same", "data_format": "channels_last", "dilation_rate": [1], "groups": 1, "activation": "relu", "use_bias": true, "kernel_initializer": {"class_name": "GlorotUniform", "config": {"seed": null}}, "bias_initializer": {"class_name": "Zeros", "config": {}}, "kernel_regularizer": null, "bias_regularizer": null, "activity_regularizer": null, "kernel_constraint": null, "bias_constraint": null}, "name": "conv1d_387", "inbound_nodes": [[["lambda", 0, 64, {}]]]}, {"class_name": "Conv1D", "config": {"name": "conv1d_390", "trainable": true, "batch_input_shape": [null, 100, 1], "dtype": "float32", "filters": 8, "kernel_size": [7], "strides": [1], "padding": "same", "data_format": "channels_last", "dilation_rate": [1], "groups": 1, "activation": "relu", "use_bias": true, "kernel_initializer": {"class_name": "GlorotUniform", "config": {"seed": null}}, "bias_initializer": {"class_name": "Zeros", "config": {}}, "kernel_regularizer": null, "bias_regularizer": null, "activity_regularizer": null, "kernel_constraint": null, "bias_constraint": null}, "name": "conv1d_390", "inbound_nodes": [[["lambda", 0, 65, {}]]]}, {"class_name": "Conv1D", "config": {"name": "conv1d_393", "trainable": true, "batch_input_shape": [null, 100, 1], "dtype": "float32", "filters": 8, "kernel_size": [3], "strides": [1], "padding": "same", "data_format": "channels_last", "dilation_rate": [1], "groups": 1, "activation": "relu", "use_bias": true, "kernel_initializer": {"class_name": "GlorotUniform", "config": {"seed": null}}, "bias_initializer": {"class_name": "Zeros", "config": {}}, "kernel_regularizer": null, "bias_regularizer": null, "activity_regularizer": null, "kernel_constraint": null, "bias_constraint": null}, "name": "conv1d_393", "inbound_nodes": [[["lambda", 0, 65, {}]]]}, {"class_name": "AveragePooling1D", "config": {"name": "average_pooling1d", "trainable": true, "dtype": "float32", "strides": [2], "pool_size": [2], "padding": "valid", "data_format": "channels_last"}, "name": "average_pooling1d", "inbound_nodes": [[["conv1d", 0, 0, {}]]]}, {"class_name": "AveragePooling1D", "config": {"name": "average_pooling1d_3", "trainable": true, "dtype": "float32", "strides": [2], "pool_size": [2], "padding": "valid", "data_format": "channels_last"}, "name": "average_pooling1d_3", "inbound_nodes": [[["conv1d_3", 0, 0, {}]]]}, {"class_name": "AveragePooling1D", "config": {"name": "average_pooling1d_9", "trainable": true, "dtype": "float32", "strides": [2], "pool_size": [2], "padding": "valid", "data_format": "channels_last"}, "name": "average_pooling1d_9", "inbound_nodes": [[["conv1d_6", 0, 0, {}]]]}, {"class_name": "AveragePooling1D", "config": {"name": "average_pooling1d_12", "trainable": true, "dtype": "float32", "strides": [2], "pool_size": [2], "padding": "valid", "data_format": "channels_last"}, "name": "average_pooling1d_12", "inbound_nodes": [[["conv1d_9", 0, 0, {}]]]}, {"class_name": "AveragePooling1D", "config": {"name": "average_pooling1d_18", "trainable": true, "dtype": "float32", "strides": [2], "pool_size": [2], "padding": "valid", "data_format": "channels_last"}, "name": "average_pooling1d_18", "inbound_nodes": [[["conv1d_12", 0, 0, {}]]]}, {"class_name": "AveragePooling1D", "config": {"name": "average_pooling1d_21", "trainable": true, "dtype": "float32", "strides": [2], "pool_size": [2], "padding": "valid", "data_format": "channels_last"}, "name": "average_pooling1d_21", "inbound_nodes": [[["conv1d_15", 0, 0, {}]]]}, {"class_name": "AveragePooling1D", "config": {"name": "average_pooling1d_27", "trainable": true, "dtype": "float32", "strides": [2], "pool_size": [2], "padding": "valid", "data_format": "channels_last"}, "name": "average_pooling1d_27", "inbound_nodes": [[["conv1d_18", 0, 0, {}]]]}, {"class_name": "AveragePooling1D", "config": {"name": "average_pooling1d_30", "trainable": true, "dtype": "float32", "strides": [2], "pool_size": [2], "padding": "valid", "data_format": "channels_last"}, "name": "average_pooling1d_30", "inbound_nodes": [[["conv1d_21", 0, 0, {}]]]}, {"class_name": "AveragePooling1D", "config": {"name": "average_pooling1d_36", "trainable": true, "dtype": "float32", "strides": [2], "pool_size": [2], "padding": "valid", "data_format": "channels_last"}, "name": "average_pooling1d_36", "inbound_nodes": [[["conv1d_24", 0, 0, {}]]]}, {"class_name": "AveragePooling1D", "config": {"name": "average_pooling1d_39", "trainable": true, "dtype": "float32", "strides": [2], "pool_size": [2], "padding": "valid", "data_format": "channels_last"}, "name": "average_pooling1d_39", "inbound_nodes": [[["conv1d_27", 0, 0, {}]]]}, {"class_name": "AveragePooling1D", "config": {"name": "average_pooling1d_45", "trainable": true, "dtype": "float32", "strides": [2], "pool_size": [2], "padding": "valid", "data_format": "channels_last"}, "name": "average_pooling1d_45", "inbound_nodes": [[["conv1d_30", 0, 0, {}]]]}, {"class_name": "AveragePooling1D", "config": {"name": "average_pooling1d_48", "trainable": true, "dtype": "float32", "strides": [2], "pool_size": [2], "padding": "valid", "data_format": "channels_last"}, "name": "average_pooling1d_48", "inbound_nodes": [[["conv1d_33", 0, 0, {}]]]}, {"class_name": "AveragePooling1D", "config": {"name": "average_pooling1d_54", "trainable": true, "dtype": "float32", "strides": [2], "pool_size": [2], "padding": "valid", "data_format": "channels_last"}, "name": "average_pooling1d_54", "inbound_nodes": [[["conv1d_36", 0, 0, {}]]]}, {"class_name": "AveragePooling1D", "config": {"name": "average_pooling1d_57", "trainable": true, "dtype": "float32", "strides": [2], "pool_size": [2], "padding": "valid", "data_format": "channels_last"}, "name": "average_pooling1d_57", "inbound_nodes": [[["conv1d_39", 0, 0, {}]]]}, {"class_name": "AveragePooling1D", "config": {"name": "average_pooling1d_63", "trainable": true, "dtype": "float32", "strides": [2], "pool_size": [2], "padding": "valid", "data_format": "channels_last"}, "name": "average_pooling1d_63", "inbound_nodes": [[["conv1d_42", 0, 0, {}]]]}, {"class_name": "AveragePooling1D", "config": {"name": "average_pooling1d_66", "trainable": true, "dtype": "float32", "strides": [2], "pool_size": [2], "padding": "valid", "data_format": "channels_last"}, "name": "average_pooling1d_66", "inbound_nodes": [[["conv1d_45", 0, 0, {}]]]}, {"class_name": "AveragePooling1D", "config": {"name": "average_pooling1d_72", "trainable": true, "dtype": "float32", "strides": [2], "pool_size": [2], "padding": "valid", "data_format": "channels_last"}, "name": "average_pooling1d_72", "inbound_nodes": [[["conv1d_48", 0, 0, {}]]]}, {"class_name": "AveragePooling1D", "config": {"name": "average_pooling1d_75", "trainable": true, "dtype": "float32", "strides": [2], "pool_size": [2], "padding": "valid", "data_format": "channels_last"}, "name": "average_pooling1d_75", "inbound_nodes": [[["conv1d_51", 0, 0, {}]]]}, {"class_name": "AveragePooling1D", "config": {"name": "average_pooling1d_81", "trainable": true, "dtype": "float32", "strides": [2], "pool_size": [2], "padding": "valid", "data_format": "channels_last"}, "name": "average_pooling1d_81", "inbound_nodes": [[["conv1d_54", 0, 0, {}]]]}, {"class_name": "AveragePooling1D", "config": {"name": "average_pooling1d_84", "trainable": true, "dtype": "float32", "strides": [2], "pool_size": [2], "padding": "valid", "data_format": "channels_last"}, "name": "average_pooling1d_84", "inbound_nodes": [[["conv1d_57", 0, 0, {}]]]}, {"class_name": "AveragePooling1D", "config": {"name": "average_pooling1d_90", "trainable": true, "dtype": "float32", "strides": [2], "pool_size": [2], "padding": "valid", "data_format": "channels_last"}, "name": "average_pooling1d_90", "inbound_nodes": [[["conv1d_60", 0, 0, {}]]]}, {"class_name": "AveragePooling1D", "config": {"name": "average_pooling1d_93", "trainable": true, "dtype": "float32", "strides": [2], "pool_size": [2], "padding": "valid", "data_format": "channels_last"}, "name": "average_pooling1d_93", "inbound_nodes": [[["conv1d_63", 0, 0, {}]]]}, {"class_name": "AveragePooling1D", "config": {"name": "average_pooling1d_99", "trainable": true, "dtype": "float32", "strides": [2], "pool_size": [2], "padding": "valid", "data_format": "channels_last"}, "name": "average_pooling1d_99", "inbound_nodes": [[["conv1d_66", 0, 0, {}]]]}, {"class_name": "AveragePooling1D", "config": {"name": "average_pooling1d_102", "trainable": true, "dtype": "float32", "strides": [2], "pool_size": [2], "padding": "valid", "data_format": "channels_last"}, "name": "average_pooling1d_102", "inbound_nodes": [[["conv1d_69", 0, 0, {}]]]}, {"class_name": "AveragePooling1D", "config": {"name": "average_pooling1d_108", "trainable": true, "dtype": "float32", "strides": [2], "pool_size": [2], "padding": "valid", "data_format": "channels_last"}, "name": "average_pooling1d_108", "inbound_nodes": [[["conv1d_72", 0, 0, {}]]]}, {"class_name": "AveragePooling1D", "config": {"name": "average_pooling1d_111", "trainable": true, "dtype": "float32", "strides": [2], "pool_size": [2], "padding": "valid", "data_format": "channels_last"}, "name": "average_pooling1d_111", "inbound_nodes": [[["conv1d_75", 0, 0, {}]]]}, {"class_name": "AveragePooling1D", "config": {"name": "average_pooling1d_117", "trainable": true, "dtype": "float32", "strides": [2], "pool_size": [2], "padding": "valid", "data_format": "channels_last"}, "name": "average_pooling1d_117", "inbound_nodes": [[["conv1d_78", 0, 0, {}]]]}, {"class_name": "AveragePooling1D", "config": {"name": "average_pooling1d_120", "trainable": true, "dtype": "float32", "strides": [2], "pool_size": [2], "padding": "valid", "data_format": "channels_last"}, "name": "average_pooling1d_120", "inbound_nodes": [[["conv1d_81", 0, 0, {}]]]}, {"class_name": "AveragePooling1D", "config": {"name": "average_pooling1d_126", "trainable": true, "dtype": "float32", "strides": [2], "pool_size": [2], "padding": "valid", "data_format": "channels_last"}, "name": "average_pooling1d_126", "inbound_nodes": [[["conv1d_84", 0, 0, {}]]]}, {"class_name": "AveragePooling1D", "config": {"name": "average_pooling1d_129", "trainable": true, "dtype": "float32", "strides": [2], "pool_size": [2], "padding": "valid", "data_format": "channels_last"}, "name": "average_pooling1d_129", "inbound_nodes": [[["conv1d_87", 0, 0, {}]]]}, {"class_name": "AveragePooling1D", "config": {"name": "average_pooling1d_135", "trainable": true, "dtype": "float32", "strides": [2], "pool_size": [2], "padding": "valid", "data_format": "channels_last"}, "name": "average_pooling1d_135", "inbound_nodes": [[["conv1d_90", 0, 0, {}]]]}, {"class_name": "AveragePooling1D", "config": {"name": "average_pooling1d_138", "trainable": true, "dtype": "float32", "strides": [2], "pool_size": [2], "padding": "valid", "data_format": "channels_last"}, "name": "average_pooling1d_138", "inbound_nodes": [[["conv1d_93", 0, 0, {}]]]}, {"class_name": "AveragePooling1D", "config": {"name": "average_pooling1d_144", "trainable": true, "dtype": "float32", "strides": [2], "pool_size": [2], "padding": "valid", "data_format": "channels_last"}, "name": "average_pooling1d_144", "inbound_nodes": [[["conv1d_96", 0, 0, {}]]]}, {"class_name": "AveragePooling1D", "config": {"name": "average_pooling1d_147", "trainable": true, "dtype": "float32", "strides": [2], "pool_size": [2], "padding": "valid", "data_format": "channels_last"}, "name": "average_pooling1d_147", "inbound_nodes": [[["conv1d_99", 0, 0, {}]]]}, {"class_name": "AveragePooling1D", "config": {"name": "average_pooling1d_153", "trainable": true, "dtype": "float32", "strides": [2], "pool_size": [2], "padding": "valid", "data_format": "channels_last"}, "name": "average_pooling1d_153", "inbound_nodes": [[["conv1d_102", 0, 0, {}]]]}, {"class_name": "AveragePooling1D", "config": {"name": "average_pooling1d_156", "trainable": true, "dtype": "float32", "strides": [2], "pool_size": [2], "padding": "valid", "data_format": "channels_last"}, "name": "average_pooling1d_156", "inbound_nodes": [[["conv1d_105", 0, 0, {}]]]}, {"class_name": "AveragePooling1D", "config": {"name": "average_pooling1d_162", "trainable": true, "dtype": "float32", "strides": [2], "pool_size": [2], "padding": "valid", "data_format": "channels_last"}, "name": "average_pooling1d_162", "inbound_nodes": [[["conv1d_108", 0, 0, {}]]]}, {"class_name": "AveragePooling1D", "config": {"name": "average_pooling1d_165", "trainable": true, "dtype": "float32", "strides": [2], "pool_size": [2], "padding": "valid", "data_format": "channels_last"}, "name": "average_pooling1d_165", "inbound_nodes": [[["conv1d_111", 0, 0, {}]]]}, {"class_name": "AveragePooling1D", "config": {"name": "average_pooling1d_171", "trainable": true, "dtype": "float32", "strides": [2], "pool_size": [2], "padding": "valid", "data_format": "channels_last"}, "name": "average_pooling1d_171", "inbound_nodes": [[["conv1d_114", 0, 0, {}]]]}, {"class_name": "AveragePooling1D", "config": {"name": "average_pooling1d_174", "trainable": true, "dtype": "float32", "strides": [2], "pool_size": [2], "padding": "valid", "data_format": "channels_last"}, "name": "average_pooling1d_174", "inbound_nodes": [[["conv1d_117", 0, 0, {}]]]}, {"class_name": "AveragePooling1D", "config": {"name": "average_pooling1d_180", "trainable": true, "dtype": "float32", "strides": [2], "pool_size": [2], "padding": "valid", "data_format": "channels_last"}, "name": "average_pooling1d_180", "inbound_nodes": [[["conv1d_120", 0, 0, {}]]]}, {"class_name": "AveragePooling1D", "config": {"name": "average_pooling1d_183", "trainable": true, "dtype": "float32", "strides": [2], "pool_size": [2], "padding": "valid", "data_format": "channels_last"}, "name": "average_pooling1d_183", "inbound_nodes": [[["conv1d_123", 0, 0, {}]]]}, {"class_name": "AveragePooling1D", "config": {"name": "average_pooling1d_189", "trainable": true, "dtype": "float32", "strides": [2], "pool_size": [2], "padding": "valid", "data_format": "channels_last"}, "name": "average_pooling1d_189", "inbound_nodes": [[["conv1d_126", 0, 0, {}]]]}, {"class_name": "AveragePooling1D", "config": {"name": "average_pooling1d_192", "trainable": true, "dtype": "float32", "strides": [2], "pool_size": [2], "padding": "valid", "data_format": "channels_last"}, "name": "average_pooling1d_192", "inbound_nodes": [[["conv1d_129", 0, 0, {}]]]}, {"class_name": "AveragePooling1D", "config": {"name": "average_pooling1d_198", "trainable": true, "dtype": "float32", "strides": [2], "pool_size": [2], "padding": "valid", "data_format": "channels_last"}, "name": "average_pooling1d_198", "inbound_nodes": [[["conv1d_132", 0, 0, {}]]]}, {"class_name": "AveragePooling1D", "config": {"name": "average_pooling1d_201", "trainable": true, "dtype": "float32", "strides": [2], "pool_size": [2], "padding": "valid", "data_format": "channels_last"}, "name": "average_pooling1d_201", "inbound_nodes": [[["conv1d_135", 0, 0, {}]]]}, {"class_name": "AveragePooling1D", "config": {"name": "average_pooling1d_207", "trainable": true, "dtype": "float32", "strides": [2], "pool_size": [2], "padding": "valid", "data_format": "channels_last"}, "name": "average_pooling1d_207", "inbound_nodes": [[["conv1d_138", 0, 0, {}]]]}, {"class_name": "AveragePooling1D", "config": {"name": "average_pooling1d_210", "trainable": true, "dtype": "float32", "strides": [2], "pool_size": [2], "padding": "valid", "data_format": "channels_last"}, "name": "average_pooling1d_210", "inbound_nodes": [[["conv1d_141", 0, 0, {}]]]}, {"class_name": "AveragePooling1D", "config": {"name": "average_pooling1d_216", "trainable": true, "dtype": "float32", "strides": [2], "pool_size": [2], "padding": "valid", "data_format": "channels_last"}, "name": "average_pooling1d_216", "inbound_nodes": [[["conv1d_144", 0, 0, {}]]]}, {"class_name": "AveragePooling1D", "config": {"name": "average_pooling1d_219", "trainable": true, "dtype": "float32", "strides": [2], "pool_size": [2], "padding": "valid", "data_format": "channels_last"}, "name": "average_pooling1d_219", "inbound_nodes": [[["conv1d_147", 0, 0, {}]]]}, {"class_name": "AveragePooling1D", "config": {"name": "average_pooling1d_225", "trainable": true, "dtype": "float32", "strides": [2], "pool_size": [2], "padding": "valid", "data_format": "channels_last"}, "name": "average_pooling1d_225", "inbound_nodes": [[["conv1d_150", 0, 0, {}]]]}, {"class_name": "AveragePooling1D", "config": {"name": "average_pooling1d_228", "trainable": true, "dtype": "float32", "strides": [2], "pool_size": [2], "padding": "valid", "data_format": "channels_last"}, "name": "average_pooling1d_228", "inbound_nodes": [[["conv1d_153", 0, 0, {}]]]}, {"class_name": "AveragePooling1D", "config": {"name": "average_pooling1d_234", "trainable": true, "dtype": "float32", "strides": [2], "pool_size": [2], "padding": "valid", "data_format": "channels_last"}, "name": "average_pooling1d_234", "inbound_nodes": [[["conv1d_156", 0, 0, {}]]]}, {"class_name": "AveragePooling1D", "config": {"name": "average_pooling1d_237", "trainable": true, "dtype": "float32", "strides": [2], "pool_size": [2], "padding": "valid", "data_format": "channels_last"}, "name": "average_pooling1d_237", "inbound_nodes": [[["conv1d_159", 0, 0, {}]]]}, {"class_name": "AveragePooling1D", "config": {"name": "average_pooling1d_243", "trainable": true, "dtype": "float32", "strides": [2], "pool_size": [2], "padding": "valid", "data_format": "channels_last"}, "name": "average_pooling1d_243", "inbound_nodes": [[["conv1d_162", 0, 0, {}]]]}, {"class_name": "AveragePooling1D", "config": {"name": "average_pooling1d_246", "trainable": true, "dtype": "float32", "strides": [2], "pool_size": [2], "padding": "valid", "data_format": "channels_last"}, "name": "average_pooling1d_246", "inbound_nodes": [[["conv1d_165", 0, 0, {}]]]}, {"class_name": "AveragePooling1D", "config": {"name": "average_pooling1d_252", "trainable": true, "dtype": "float32", "strides": [2], "pool_size": [2], "padding": "valid", "data_format": "channels_last"}, "name": "average_pooling1d_252", "inbound_nodes": [[["conv1d_168", 0, 0, {}]]]}, {"class_name": "AveragePooling1D", "config": {"name": "average_pooling1d_255", "trainable": true, "dtype": "float32", "strides": [2], "pool_size": [2], "padding": "valid", "data_format": "channels_last"}, "name": "average_pooling1d_255", "inbound_nodes": [[["conv1d_171", 0, 0, {}]]]}, {"class_name": "AveragePooling1D", "config": {"name": "average_pooling1d_261", "trainable": true, "dtype": "float32", "strides": [2], "pool_size": [2], "padding": "valid", "data_format": "channels_last"}, "name": "average_pooling1d_261", "inbound_nodes": [[["conv1d_174", 0, 0, {}]]]}, {"class_name": "AveragePooling1D", "config": {"name": "average_pooling1d_264", "trainable": true, "dtype": "float32", "strides": [2], "pool_size": [2], "padding": "valid", "data_format": "channels_last"}, "name": "average_pooling1d_264", "inbound_nodes": [[["conv1d_177", 0, 0, {}]]]}, {"class_name": "AveragePooling1D", "config": {"name": "average_pooling1d_270", "trainable": true, "dtype": "float32", "strides": [2], "pool_size": [2], "padding": "valid", "data_format": "channels_last"}, "name": "average_pooling1d_270", "inbound_nodes": [[["conv1d_180", 0, 0, {}]]]}, {"class_name": "AveragePooling1D", "config": {"name": "average_pooling1d_273", "trainable": true, "dtype": "float32", "strides": [2], "pool_size": [2], "padding": "valid", "data_format": "channels_last"}, "name": "average_pooling1d_273", "inbound_nodes": [[["conv1d_183", 0, 0, {}]]]}, {"class_name": "AveragePooling1D", "config": {"name": "average_pooling1d_279", "trainable": true, "dtype": "float32", "strides": [2], "pool_size": [2], "padding": "valid", "data_format": "channels_last"}, "name": "average_pooling1d_279", "inbound_nodes": [[["conv1d_186", 0, 0, {}]]]}, {"class_name": "AveragePooling1D", "config": {"name": "average_pooling1d_282", "trainable": true, "dtype": "float32", "strides": [2], "pool_size": [2], "padding": "valid", "data_format": "channels_last"}, "name": "average_pooling1d_282", "inbound_nodes": [[["conv1d_189", 0, 0, {}]]]}, {"class_name": "AveragePooling1D", "config": {"name": "average_pooling1d_288", "trainable": true, "dtype": "float32", "strides": [2], "pool_size": [2], "padding": "valid", "data_format": "channels_last"}, "name": "average_pooling1d_288", "inbound_nodes": [[["conv1d_192", 0, 0, {}]]]}, {"class_name": "AveragePooling1D", "config": {"name": "average_pooling1d_291", "trainable": true, "dtype": "float32", "strides": [2], "pool_size": [2], "padding": "valid", "data_format": "channels_last"}, "name": "average_pooling1d_291", "inbound_nodes": [[["conv1d_195", 0, 0, {}]]]}, {"class_name": "AveragePooling1D", "config": {"name": "average_pooling1d_297", "trainable": true, "dtype": "float32", "strides": [2], "pool_size": [2], "padding": "valid", "data_format": "channels_last"}, "name": "average_pooling1d_297", "inbound_nodes": [[["conv1d_198", 0, 0, {}]]]}, {"class_name": "AveragePooling1D", "config": {"name": "average_pooling1d_300", "trainable": true, "dtype": "float32", "strides": [2], "pool_size": [2], "padding": "valid", "data_format": "channels_last"}, "name": "average_pooling1d_300", "inbound_nodes": [[["conv1d_201", 0, 0, {}]]]}, {"class_name": "AveragePooling1D", "config": {"name": "average_pooling1d_306", "trainable": true, "dtype": "float32", "strides": [2], "pool_size": [2], "padding": "valid", "data_format": "channels_last"}, "name": "average_pooling1d_306", "inbound_nodes": [[["conv1d_204", 0, 0, {}]]]}, {"class_name": "AveragePooling1D", "config": {"name": "average_pooling1d_309", "trainable": true, "dtype": "float32", "strides": [2], "pool_size": [2], "padding": "valid", "data_format": "channels_last"}, "name": "average_pooling1d_309", "inbound_nodes": [[["conv1d_207", 0, 0, {}]]]}, {"class_name": "AveragePooling1D", "config": {"name": "average_pooling1d_315", "trainable": true, "dtype": "float32", "strides": [2], "pool_size": [2], "padding": "valid", "data_format": "channels_last"}, "name": "average_pooling1d_315", "inbound_nodes": [[["conv1d_210", 0, 0, {}]]]}, {"class_name": "AveragePooling1D", "config": {"name": "average_pooling1d_318", "trainable": true, "dtype": "float32", "strides": [2], "pool_size": [2], "padding": "valid", "data_format": "channels_last"}, "name": "average_pooling1d_318", "inbound_nodes": [[["conv1d_213", 0, 0, {}]]]}, {"class_name": "AveragePooling1D", "config": {"name": "average_pooling1d_324", "trainable": true, "dtype": "float32", "strides": [2], "pool_size": [2], "padding": "valid", "data_format": "channels_last"}, "name": "average_pooling1d_324", "inbound_nodes": [[["conv1d_216", 0, 0, {}]]]}, {"class_name": "AveragePooling1D", "config": {"name": "average_pooling1d_327", "trainable": true, "dtype": "float32", "strides": [2], "pool_size": [2], "padding": "valid", "data_format": "channels_last"}, "name": "average_pooling1d_327", "inbound_nodes": [[["conv1d_219", 0, 0, {}]]]}, {"class_name": "AveragePooling1D", "config": {"name": "average_pooling1d_333", "trainable": true, "dtype": "float32", "strides": [2], "pool_size": [2], "padding": "valid", "data_format": "channels_last"}, "name": "average_pooling1d_333", "inbound_nodes": [[["conv1d_222", 0, 0, {}]]]}, {"class_name": "AveragePooling1D", "config": {"name": "average_pooling1d_336", "trainable": true, "dtype": "float32", "strides": [2], "pool_size": [2], "padding": "valid", "data_format": "channels_last"}, "name": "average_pooling1d_336", "inbound_nodes": [[["conv1d_225", 0, 0, {}]]]}, {"class_name": "AveragePooling1D", "config": {"name": "average_pooling1d_342", "trainable": true, "dtype": "float32", "strides": [2], "pool_size": [2], "padding": "valid", "data_format": "channels_last"}, "name": "average_pooling1d_342", "inbound_nodes": [[["conv1d_228", 0, 0, {}]]]}, {"class_name": "AveragePooling1D", "config": {"name": "average_pooling1d_345", "trainable": true, "dtype": "float32", "strides": [2], "pool_size": [2], "padding": "valid", "data_format": "channels_last"}, "name": "average_pooling1d_345", "inbound_nodes": [[["conv1d_231", 0, 0, {}]]]}, {"class_name": "AveragePooling1D", "config": {"name": "average_pooling1d_351", "trainable": true, "dtype": "float32", "strides": [2], "pool_size": [2], "padding": "valid", "data_format": "channels_last"}, "name": "average_pooling1d_351", "inbound_nodes": [[["conv1d_234", 0, 0, {}]]]}, {"class_name": "AveragePooling1D", "config": {"name": "average_pooling1d_354", "trainable": true, "dtype": "float32", "strides": [2], "pool_size": [2], "padding": "valid", "data_format": "channels_last"}, "name": "average_pooling1d_354", "inbound_nodes": [[["conv1d_237", 0, 0, {}]]]}, {"class_name": "AveragePooling1D", "config": {"name": "average_pooling1d_360", "trainable": true, "dtype": "float32", "strides": [2], "pool_size": [2], "padding": "valid", "data_format": "channels_last"}, "name": "average_pooling1d_360", "inbound_nodes": [[["conv1d_240", 0, 0, {}]]]}, {"class_name": "AveragePooling1D", "config": {"name": "average_pooling1d_363", "trainable": true, "dtype": "float32", "strides": [2], "pool_size": [2], "padding": "valid", "data_format": "channels_last"}, "name": "average_pooling1d_363", "inbound_nodes": [[["conv1d_243", 0, 0, {}]]]}, {"class_name": "AveragePooling1D", "config": {"name": "average_pooling1d_369", "trainable": true, "dtype": "float32", "strides": [2], "pool_size": [2], "padding": "valid", "data_format": "channels_last"}, "name": "average_pooling1d_369", "inbound_nodes": [[["conv1d_246", 0, 0, {}]]]}, {"class_name": "AveragePooling1D", "config": {"name": "average_pooling1d_372", "trainable": true, "dtype": "float32", "strides": [2], "pool_size": [2], "padding": "valid", "data_format": "channels_last"}, "name": "average_pooling1d_372", "inbound_nodes": [[["conv1d_249", 0, 0, {}]]]}, {"class_name": "AveragePooling1D", "config": {"name": "average_pooling1d_378", "trainable": true, "dtype": "float32", "strides": [2], "pool_size": [2], "padding": "valid", "data_format": "channels_last"}, "name": "average_pooling1d_378", "inbound_nodes": [[["conv1d_252", 0, 0, {}]]]}, {"class_name": "AveragePooling1D", "config": {"name": "average_pooling1d_381", "trainable": true, "dtype": "float32", "strides": [2], "pool_size": [2], "padding": "valid", "data_format": "channels_last"}, "name": "average_pooling1d_381", "inbound_nodes": [[["conv1d_255", 0, 0, {}]]]}, {"class_name": "AveragePooling1D", "config": {"name": "average_pooling1d_387", "trainable": true, "dtype": "float32", "strides": [2], "pool_size": [2], "padding": "valid", "data_format": "channels_last"}, "name": "average_pooling1d_387", "inbound_nodes": [[["conv1d_258", 0, 0, {}]]]}, {"class_name": "AveragePooling1D", "config": {"name": "average_pooling1d_390", "trainable": true, "dtype": "float32", "strides": [2], "pool_size": [2], "padding": "valid", "data_format": "channels_last"}, "name": "average_pooling1d_390", "inbound_nodes": [[["conv1d_261", 0, 0, {}]]]}, {"class_name": "AveragePooling1D", "config": {"name": "average_pooling1d_396", "trainable": true, "dtype": "float32", "strides": [2], "pool_size": [2], "padding": "valid", "data_format": "channels_last"}, "name": "average_pooling1d_396", "inbound_nodes": [[["conv1d_264", 0, 0, {}]]]}, {"class_name": "AveragePooling1D", "config": {"name": "average_pooling1d_399", "trainable": true, "dtype": "float32", "strides": [2], "pool_size": [2], "padding": "valid", "data_format": "channels_last"}, "name": "average_pooling1d_399", "inbound_nodes": [[["conv1d_267", 0, 0, {}]]]}, {"class_name": "AveragePooling1D", "config": {"name": "average_pooling1d_405", "trainable": true, "dtype": "float32", "strides": [2], "pool_size": [2], "padding": "valid", "data_format": "channels_last"}, "name": "average_pooling1d_405", "inbound_nodes": [[["conv1d_270", 0, 0, {}]]]}, {"class_name": "AveragePooling1D", "config": {"name": "average_pooling1d_408", "trainable": true, "dtype": "float32", "strides": [2], "pool_size": [2], "padding": "valid", "data_format": "channels_last"}, "name": "average_pooling1d_408", "inbound_nodes": [[["conv1d_273", 0, 0, {}]]]}, {"class_name": "AveragePooling1D", "config": {"name": "average_pooling1d_414", "trainable": true, "dtype": "float32", "strides": [2], "pool_size": [2], "padding": "valid", "data_format": "channels_last"}, "name": "average_pooling1d_414", "inbound_nodes": [[["conv1d_276", 0, 0, {}]]]}, {"class_name": "AveragePooling1D", "config": {"name": "average_pooling1d_417", "trainable": true, "dtype": "float32", "strides": [2], "pool_size": [2], "padding": "valid", "data_format": "channels_last"}, "name": "average_pooling1d_417", "inbound_nodes": [[["conv1d_279", 0, 0, {}]]]}, {"class_name": "AveragePooling1D", "config": {"name": "average_pooling1d_423", "trainable": true, "dtype": "float32", "strides": [2], "pool_size": [2], "padding": "valid", "data_format": "channels_last"}, "name": "average_pooling1d_423", "inbound_nodes": [[["conv1d_282", 0, 0, {}]]]}, {"class_name": "AveragePooling1D", "config": {"name": "average_pooling1d_426", "trainable": true, "dtype": "float32", "strides": [2], "pool_size": [2], "padding": "valid", "data_format": "channels_last"}, "name": "average_pooling1d_426", "inbound_nodes": [[["conv1d_285", 0, 0, {}]]]}, {"class_name": "AveragePooling1D", "config": {"name": "average_pooling1d_432", "trainable": true, "dtype": "float32", "strides": [2], "pool_size": [2], "padding": "valid", "data_format": "channels_last"}, "name": "average_pooling1d_432", "inbound_nodes": [[["conv1d_288", 0, 0, {}]]]}, {"class_name": "AveragePooling1D", "config": {"name": "average_pooling1d_435", "trainable": true, "dtype": "float32", "strides": [2], "pool_size": [2], "padding": "valid", "data_format": "channels_last"}, "name": "average_pooling1d_435", "inbound_nodes": [[["conv1d_291", 0, 0, {}]]]}, {"class_name": "AveragePooling1D", "config": {"name": "average_pooling1d_441", "trainable": true, "dtype": "float32", "strides": [2], "pool_size": [2], "padding": "valid", "data_format": "channels_last"}, "name": "average_pooling1d_441", "inbound_nodes": [[["conv1d_294", 0, 0, {}]]]}, {"class_name": "AveragePooling1D", "config": {"name": "average_pooling1d_444", "trainable": true, "dtype": "float32", "strides": [2], "pool_size": [2], "padding": "valid", "data_format": "channels_last"}, "name": "average_pooling1d_444", "inbound_nodes": [[["conv1d_297", 0, 0, {}]]]}, {"class_name": "AveragePooling1D", "config": {"name": "average_pooling1d_450", "trainable": true, "dtype": "float32", "strides": [2], "pool_size": [2], "padding": "valid", "data_format": "channels_last"}, "name": "average_pooling1d_450", "inbound_nodes": [[["conv1d_300", 0, 0, {}]]]}, {"class_name": "AveragePooling1D", "config": {"name": "average_pooling1d_453", "trainable": true, "dtype": "float32", "strides": [2], "pool_size": [2], "padding": "valid", "data_format": "channels_last"}, "name": "average_pooling1d_453", "inbound_nodes": [[["conv1d_303", 0, 0, {}]]]}, {"class_name": "AveragePooling1D", "config": {"name": "average_pooling1d_459", "trainable": true, "dtype": "float32", "strides": [2], "pool_size": [2], "padding": "valid", "data_format": "channels_last"}, "name": "average_pooling1d_459", "inbound_nodes": [[["conv1d_306", 0, 0, {}]]]}, {"class_name": "AveragePooling1D", "config": {"name": "average_pooling1d_462", "trainable": true, "dtype": "float32", "strides": [2], "pool_size": [2], "padding": "valid", "data_format": "channels_last"}, "name": "average_pooling1d_462", "inbound_nodes": [[["conv1d_309", 0, 0, {}]]]}, {"class_name": "AveragePooling1D", "config": {"name": "average_pooling1d_468", "trainable": true, "dtype": "float32", "strides": [2], "pool_size": [2], "padding": "valid", "data_format": "channels_last"}, "name": "average_pooling1d_468", "inbound_nodes": [[["conv1d_312", 0, 0, {}]]]}, {"class_name": "AveragePooling1D", "config": {"name": "average_pooling1d_471", "trainable": true, "dtype": "float32", "strides": [2], "pool_size": [2], "padding": "valid", "data_format": "channels_last"}, "name": "average_pooling1d_471", "inbound_nodes": [[["conv1d_315", 0, 0, {}]]]}, {"class_name": "AveragePooling1D", "config": {"name": "average_pooling1d_477", "trainable": true, "dtype": "float32", "strides": [2], "pool_size": [2], "padding": "valid", "data_format": "channels_last"}, "name": "average_pooling1d_477", "inbound_nodes": [[["conv1d_318", 0, 0, {}]]]}, {"class_name": "AveragePooling1D", "config": {"name": "average_pooling1d_480", "trainable": true, "dtype": "float32", "strides": [2], "pool_size": [2], "padding": "valid", "data_format": "channels_last"}, "name": "average_pooling1d_480", "inbound_nodes": [[["conv1d_321", 0, 0, {}]]]}, {"class_name": "AveragePooling1D", "config": {"name": "average_pooling1d_486", "trainable": true, "dtype": "float32", "strides": [2], "pool_size": [2], "padding": "valid", "data_format": "channels_last"}, "name": "average_pooling1d_486", "inbound_nodes": [[["conv1d_324", 0, 0, {}]]]}, {"class_name": "AveragePooling1D", "config": {"name": "average_pooling1d_489", "trainable": true, "dtype": "float32", "strides": [2], "pool_size": [2], "padding": "valid", "data_format": "channels_last"}, "name": "average_pooling1d_489", "inbound_nodes": [[["conv1d_327", 0, 0, {}]]]}, {"class_name": "AveragePooling1D", "config": {"name": "average_pooling1d_495", "trainable": true, "dtype": "float32", "strides": [2], "pool_size": [2], "padding": "valid", "data_format": "channels_last"}, "name": "average_pooling1d_495", "inbound_nodes": [[["conv1d_330", 0, 0, {}]]]}, {"class_name": "AveragePooling1D", "config": {"name": "average_pooling1d_498", "trainable": true, "dtype": "float32", "strides": [2], "pool_size": [2], "padding": "valid", "data_format": "channels_last"}, "name": "average_pooling1d_498", "inbound_nodes": [[["conv1d_333", 0, 0, {}]]]}, {"class_name": "AveragePooling1D", "config": {"name": "average_pooling1d_504", "trainable": true, "dtype": "float32", "strides": [2], "pool_size": [2], "padding": "valid", "data_format": "channels_last"}, "name": "average_pooling1d_504", "inbound_nodes": [[["conv1d_336", 0, 0, {}]]]}, {"class_name": "AveragePooling1D", "config": {"name": "average_pooling1d_507", "trainable": true, "dtype": "float32", "strides": [2], "pool_size": [2], "padding": "valid", "data_format": "channels_last"}, "name": "average_pooling1d_507", "inbound_nodes": [[["conv1d_339", 0, 0, {}]]]}, {"class_name": "AveragePooling1D", "config": {"name": "average_pooling1d_513", "trainable": true, "dtype": "float32", "strides": [2], "pool_size": [2], "padding": "valid", "data_format": "channels_last"}, "name": "average_pooling1d_513", "inbound_nodes": [[["conv1d_342", 0, 0, {}]]]}, {"class_name": "AveragePooling1D", "config": {"name": "average_pooling1d_516", "trainable": true, "dtype": "float32", "strides": [2], "pool_size": [2], "padding": "valid", "data_format": "channels_last"}, "name": "average_pooling1d_516", "inbound_nodes": [[["conv1d_345", 0, 0, {}]]]}, {"class_name": "AveragePooling1D", "config": {"name": "average_pooling1d_522", "trainable": true, "dtype": "float32", "strides": [2], "pool_size": [2], "padding": "valid", "data_format": "channels_last"}, "name": "average_pooling1d_522", "inbound_nodes": [[["conv1d_348", 0, 0, {}]]]}, {"class_name": "AveragePooling1D", "config": {"name": "average_pooling1d_525", "trainable": true, "dtype": "float32", "strides": [2], "pool_size": [2], "padding": "valid", "data_format": "channels_last"}, "name": "average_pooling1d_525", "inbound_nodes": [[["conv1d_351", 0, 0, {}]]]}, {"class_name": "AveragePooling1D", "config": {"name": "average_pooling1d_531", "trainable": true, "dtype": "float32", "strides": [2], "pool_size": [2], "padding": "valid", "data_format": "channels_last"}, "name": "average_pooling1d_531", "inbound_nodes": [[["conv1d_354", 0, 0, {}]]]}, {"class_name": "AveragePooling1D", "config": {"name": "average_pooling1d_534", "trainable": true, "dtype": "float32", "strides": [2], "pool_size": [2], "padding": "valid", "data_format": "channels_last"}, "name": "average_pooling1d_534", "inbound_nodes": [[["conv1d_357", 0, 0, {}]]]}, {"class_name": "AveragePooling1D", "config": {"name": "average_pooling1d_540", "trainable": true, "dtype": "float32", "strides": [2], "pool_size": [2], "padding": "valid", "data_format": "channels_last"}, "name": "average_pooling1d_540", "inbound_nodes": [[["conv1d_360", 0, 0, {}]]]}, {"class_name": "AveragePooling1D", "config": {"name": "average_pooling1d_543", "trainable": true, "dtype": "float32", "strides": [2], "pool_size": [2], "padding": "valid", "data_format": "channels_last"}, "name": "average_pooling1d_543", "inbound_nodes": [[["conv1d_363", 0, 0, {}]]]}, {"class_name": "AveragePooling1D", "config": {"name": "average_pooling1d_549", "trainable": true, "dtype": "float32", "strides": [2], "pool_size": [2], "padding": "valid", "data_format": "channels_last"}, "name": "average_pooling1d_549", "inbound_nodes": [[["conv1d_366", 0, 0, {}]]]}, {"class_name": "AveragePooling1D", "config": {"name": "average_pooling1d_552", "trainable": true, "dtype": "float32", "strides": [2], "pool_size": [2], "padding": "valid", "data_format": "channels_last"}, "name": "average_pooling1d_552", "inbound_nodes": [[["conv1d_369", 0, 0, {}]]]}, {"class_name": "AveragePooling1D", "config": {"name": "average_pooling1d_558", "trainable": true, "dtype": "float32", "strides": [2], "pool_size": [2], "padding": "valid", "data_format": "channels_last"}, "name": "average_pooling1d_558", "inbound_nodes": [[["conv1d_372", 0, 0, {}]]]}, {"class_name": "AveragePooling1D", "config": {"name": "average_pooling1d_561", "trainable": true, "dtype": "float32", "strides": [2], "pool_size": [2], "padding": "valid", "data_format": "channels_last"}, "name": "average_pooling1d_561", "inbound_nodes": [[["conv1d_375", 0, 0, {}]]]}, {"class_name": "AveragePooling1D", "config": {"name": "average_pooling1d_567", "trainable": true, "dtype": "float32", "strides": [2], "pool_size": [2], "padding": "valid", "data_format": "channels_last"}, "name": "average_pooling1d_567", "inbound_nodes": [[["conv1d_378", 0, 0, {}]]]}, {"class_name": "AveragePooling1D", "config": {"name": "average_pooling1d_570", "trainable": true, "dtype": "float32", "strides": [2], "pool_size": [2], "padding": "valid", "data_format": "channels_last"}, "name": "average_pooling1d_570", "inbound_nodes": [[["conv1d_381", 0, 0, {}]]]}, {"class_name": "AveragePooling1D", "config": {"name": "average_pooling1d_576", "trainable": true, "dtype": "float32", "strides": [2], "pool_size": [2], "padding": "valid", "data_format": "channels_last"}, "name": "average_pooling1d_576", "inbound_nodes": [[["conv1d_384", 0, 0, {}]]]}, {"class_name": "AveragePooling1D", "config": {"name": "average_pooling1d_579", "trainable": true, "dtype": "float32", "strides": [2], "pool_size": [2], "padding": "valid", "data_format": "channels_last"}, "name": "average_pooling1d_579", "inbound_nodes": [[["conv1d_387", 0, 0, {}]]]}, {"class_name": "AveragePooling1D", "config": {"name": "average_pooling1d_585", "trainable": true, "dtype": "float32", "strides": [2], "pool_size": [2], "padding": "valid", "data_format": "channels_last"}, "name": "average_pooling1d_585", "inbound_nodes": [[["conv1d_390", 0, 0, {}]]]}, {"class_name": "AveragePooling1D", "config": {"name": "average_pooling1d_588", "trainable": true, "dtype": "float32", "strides": [2], "pool_size": [2], "padding": "valid", "data_format": "channels_last"}, "name": "average_pooling1d_588", "inbound_nodes": [[["conv1d_393", 0, 0, {}]]]}, {"class_name": "Conv1D", "config": {"name": "conv1d_1", "trainable": true, "dtype": "float32", "filters": 4, "kernel_size": [7], "strides": [1], "padding": "same", "data_format": "channels_last", "dilation_rate": [1], "groups": 1, "activation": "relu", "use_bias": true, "kernel_initializer": {"class_name": "GlorotUniform", "config": {"seed": null}}, "bias_initializer": {"class_name": "Zeros", "config": {}}, "kernel_regularizer": null, "bias_regularizer": null, "activity_regularizer": null, "kernel_constraint": null, "bias_constraint": null}, "name": "conv1d_1", "inbound_nodes": [[["average_pooling1d", 0, 0, {}]]]}, {"class_name": "Conv1D", "config": {"name": "conv1d_4", "trainable": true, "dtype": "float32", "filters": 4, "kernel_size": [3], "strides": [1], "padding": "same", "data_format": "channels_last", "dilation_rate": [1], "groups": 1, "activation": "relu", "use_bias": true, "kernel_initializer": {"class_name": "GlorotUniform", "config": {"seed": null}}, "bias_initializer": {"class_name": "Zeros", "config": {}}, "kernel_regularizer": null, "bias_regularizer": null, "activity_regularizer": null, "kernel_constraint": null, "bias_constraint": null}, "name": "conv1d_4", "inbound_nodes": [[["average_pooling1d_3", 0, 0, {}]]]}, {"class_name": "Conv1D", "config": {"name": "conv1d_7", "trainable": true, "dtype": "float32", "filters": 4, "kernel_size": [7], "strides": [1], "padding": "same", "data_format": "channels_last", "dilation_rate": [1], "groups": 1, "activation": "relu", "use_bias": true, "kernel_initializer": {"class_name": "GlorotUniform", "config": {"seed": null}}, "bias_initializer": {"class_name": "Zeros", "config": {}}, "kernel_regularizer": null, "bias_regularizer": null, "activity_regularizer": null, "kernel_constraint": null, "bias_constraint": null}, "name": "conv1d_7", "inbound_nodes": [[["average_pooling1d_9", 0, 0, {}]]]}, {"class_name": "Conv1D", "config": {"name": "conv1d_10", "trainable": true, "dtype": "float32", "filters": 4, "kernel_size": [3], "strides": [1], "padding": "same", "data_format": "channels_last", "dilation_rate": [1], "groups": 1, "activation": "relu", "use_bias": true, "kernel_initializer": {"class_name": "GlorotUniform", "config": {"seed": null}}, "bias_initializer": {"class_name": "Zeros", "config": {}}, "kernel_regularizer": null, "bias_regularizer": null, "activity_regularizer": null, "kernel_constraint": null, "bias_constraint": null}, "name": "conv1d_10", "inbound_nodes": [[["average_pooling1d_12", 0, 0, {}]]]}, {"class_name": "Conv1D", "config": {"name": "conv1d_13", "trainable": true, "dtype": "float32", "filters": 4, "kernel_size": [7], "strides": [1], "padding": "same", "data_format": "channels_last", "dilation_rate": [1], "groups": 1, "activation": "relu", "use_bias": true, "kernel_initializer": {"class_name": "GlorotUniform", "config": {"seed": null}}, "bias_initializer": {"class_name": "Zeros", "config": {}}, "kernel_regularizer": null, "bias_regularizer": null, "activity_regularizer": null, "kernel_constraint": null, "bias_constraint": null}, "name": "conv1d_13", "inbound_nodes": [[["average_pooling1d_18", 0, 0, {}]]]}, {"class_name": "Conv1D", "config": {"name": "conv1d_16", "trainable": true, "dtype": "float32", "filters": 4, "kernel_size": [3], "strides": [1], "padding": "same", "data_format": "channels_last", "dilation_rate": [1], "groups": 1, "activation": "relu", "use_bias": true, "kernel_initializer": {"class_name": "GlorotUniform", "config": {"seed": null}}, "bias_initializer": {"class_name": "Zeros", "config": {}}, "kernel_regularizer": null, "bias_regularizer": null, "activity_regularizer": null, "kernel_constraint": null, "bias_constraint": null}, "name": "conv1d_16", "inbound_nodes": [[["average_pooling1d_21", 0, 0, {}]]]}, {"class_name": "Conv1D", "config": {"name": "conv1d_19", "trainable": true, "dtype": "float32", "filters": 4, "kernel_size": [7], "strides": [1], "padding": "same", "data_format": "channels_last", "dilation_rate": [1], "groups": 1, "activation": "relu", "use_bias": true, "kernel_initializer": {"class_name": "GlorotUniform", "config": {"seed": null}}, "bias_initializer": {"class_name": "Zeros", "config": {}}, "kernel_regularizer": null, "bias_regularizer": null, "activity_regularizer": null, "kernel_constraint": null, "bias_constraint": null}, "name": "conv1d_19", "inbound_nodes": [[["average_pooling1d_27", 0, 0, {}]]]}, {"class_name": "Conv1D", "config": {"name": "conv1d_22", "trainable": true, "dtype": "float32", "filters": 4, "kernel_size": [3], "strides": [1], "padding": "same", "data_format": "channels_last", "dilation_rate": [1], "groups": 1, "activation": "relu", "use_bias": true, "kernel_initializer": {"class_name": "GlorotUniform", "config": {"seed": null}}, "bias_initializer": {"class_name": "Zeros", "config": {}}, "kernel_regularizer": null, "bias_regularizer": null, "activity_regularizer": null, "kernel_constraint": null, "bias_constraint": null}, "name": "conv1d_22", "inbound_nodes": [[["average_pooling1d_30", 0, 0, {}]]]}, {"class_name": "Conv1D", "config": {"name": "conv1d_25", "trainable": true, "dtype": "float32", "filters": 4, "kernel_size": [7], "strides": [1], "padding": "same", "data_format": "channels_last", "dilation_rate": [1], "groups": 1, "activation": "relu", "use_bias": true, "kernel_initializer": {"class_name": "GlorotUniform", "config": {"seed": null}}, "bias_initializer": {"class_name": "Zeros", "config": {}}, "kernel_regularizer": null, "bias_regularizer": null, "activity_regularizer": null, "kernel_constraint": null, "bias_constraint": null}, "name": "conv1d_25", "inbound_nodes": [[["average_pooling1d_36", 0, 0, {}]]]}, {"class_name": "Conv1D", "config": {"name": "conv1d_28", "trainable": true, "dtype": "float32", "filters": 4, "kernel_size": [3], "strides": [1], "padding": "same", "data_format": "channels_last", "dilation_rate": [1], "groups": 1, "activation": "relu", "use_bias": true, "kernel_initializer": {"class_name": "GlorotUniform", "config": {"seed": null}}, "bias_initializer": {"class_name": "Zeros", "config": {}}, "kernel_regularizer": null, "bias_regularizer": null, "activity_regularizer": null, "kernel_constraint": null, "bias_constraint": null}, "name": "conv1d_28", "inbound_nodes": [[["average_pooling1d_39", 0, 0, {}]]]}, {"class_name": "Conv1D", "config": {"name": "conv1d_31", "trainable": true, "dtype": "float32", "filters": 4, "kernel_size": [7], "strides": [1], "padding": "same", "data_format": "channels_last", "dilation_rate": [1], "groups": 1, "activation": "relu", "use_bias": true, "kernel_initializer": {"class_name": "GlorotUniform", "config": {"seed": null}}, "bias_initializer": {"class_name": "Zeros", "config": {}}, "kernel_regularizer": null, "bias_regularizer": null, "activity_regularizer": null, "kernel_constraint": null, "bias_constraint": null}, "name": "conv1d_31", "inbound_nodes": [[["average_pooling1d_45", 0, 0, {}]]]}, {"class_name": "Conv1D", "config": {"name": "conv1d_34", "trainable": true, "dtype": "float32", "filters": 4, "kernel_size": [3], "strides": [1], "padding": "same", "data_format": "channels_last", "dilation_rate": [1], "groups": 1, "activation": "relu", "use_bias": true, "kernel_initializer": {"class_name": "GlorotUniform", "config": {"seed": null}}, "bias_initializer": {"class_name": "Zeros", "config": {}}, "kernel_regularizer": null, "bias_regularizer": null, "activity_regularizer": null, "kernel_constraint": null, "bias_constraint": null}, "name": "conv1d_34", "inbound_nodes": [[["average_pooling1d_48", 0, 0, {}]]]}, {"class_name": "Conv1D", "config": {"name": "conv1d_37", "trainable": true, "dtype": "float32", "filters": 4, "kernel_size": [7], "strides": [1], "padding": "same", "data_format": "channels_last", "dilation_rate": [1], "groups": 1, "activation": "relu", "use_bias": true, "kernel_initializer": {"class_name": "GlorotUniform", "config": {"seed": null}}, "bias_initializer": {"class_name": "Zeros", "config": {}}, "kernel_regularizer": null, "bias_regularizer": null, "activity_regularizer": null, "kernel_constraint": null, "bias_constraint": null}, "name": "conv1d_37", "inbound_nodes": [[["average_pooling1d_54", 0, 0, {}]]]}, {"class_name": "Conv1D", "config": {"name": "conv1d_40", "trainable": true, "dtype": "float32", "filters": 4, "kernel_size": [3], "strides": [1], "padding": "same", "data_format": "channels_last", "dilation_rate": [1], "groups": 1, "activation": "relu", "use_bias": true, "kernel_initializer": {"class_name": "GlorotUniform", "config": {"seed": null}}, "bias_initializer": {"class_name": "Zeros", "config": {}}, "kernel_regularizer": null, "bias_regularizer": null, "activity_regularizer": null, "kernel_constraint": null, "bias_constraint": null}, "name": "conv1d_40", "inbound_nodes": [[["average_pooling1d_57", 0, 0, {}]]]}, {"class_name": "Conv1D", "config": {"name": "conv1d_43", "trainable": true, "dtype": "float32", "filters": 4, "kernel_size": [7], "strides": [1], "padding": "same", "data_format": "channels_last", "dilation_rate": [1], "groups": 1, "activation": "relu", "use_bias": true, "kernel_initializer": {"class_name": "GlorotUniform", "config": {"seed": null}}, "bias_initializer": {"class_name": "Zeros", "config": {}}, "kernel_regularizer": null, "bias_regularizer": null, "activity_regularizer": null, "kernel_constraint": null, "bias_constraint": null}, "name": "conv1d_43", "inbound_nodes": [[["average_pooling1d_63", 0, 0, {}]]]}, {"class_name": "Conv1D", "config": {"name": "conv1d_46", "trainable": true, "dtype": "float32", "filters": 4, "kernel_size": [3], "strides": [1], "padding": "same", "data_format": "channels_last", "dilation_rate": [1], "groups": 1, "activation": "relu", "use_bias": true, "kernel_initializer": {"class_name": "GlorotUniform", "config": {"seed": null}}, "bias_initializer": {"class_name": "Zeros", "config": {}}, "kernel_regularizer": null, "bias_regularizer": null, "activity_regularizer": null, "kernel_constraint": null, "bias_constraint": null}, "name": "conv1d_46", "inbound_nodes": [[["average_pooling1d_66", 0, 0, {}]]]}, {"class_name": "Conv1D", "config": {"name": "conv1d_49", "trainable": true, "dtype": "float32", "filters": 4, "kernel_size": [7], "strides": [1], "padding": "same", "data_format": "channels_last", "dilation_rate": [1], "groups": 1, "activation": "relu", "use_bias": true, "kernel_initializer": {"class_name": "GlorotUniform", "config": {"seed": null}}, "bias_initializer": {"class_name": "Zeros", "config": {}}, "kernel_regularizer": null, "bias_regularizer": null, "activity_regularizer": null, "kernel_constraint": null, "bias_constraint": null}, "name": "conv1d_49", "inbound_nodes": [[["average_pooling1d_72", 0, 0, {}]]]}, {"class_name": "Conv1D", "config": {"name": "conv1d_52", "trainable": true, "dtype": "float32", "filters": 4, "kernel_size": [3], "strides": [1], "padding": "same", "data_format": "channels_last", "dilation_rate": [1], "groups": 1, "activation": "relu", "use_bias": true, "kernel_initializer": {"class_name": "GlorotUniform", "config": {"seed": null}}, "bias_initializer": {"class_name": "Zeros", "config": {}}, "kernel_regularizer": null, "bias_regularizer": null, "activity_regularizer": null, "kernel_constraint": null, "bias_constraint": null}, "name": "conv1d_52", "inbound_nodes": [[["average_pooling1d_75", 0, 0, {}]]]}, {"class_name": "Conv1D", "config": {"name": "conv1d_55", "trainable": true, "dtype": "float32", "filters": 4, "kernel_size": [7], "strides": [1], "padding": "same", "data_format": "channels_last", "dilation_rate": [1], "groups": 1, "activation": "relu", "use_bias": true, "kernel_initializer": {"class_name": "GlorotUniform", "config": {"seed": null}}, "bias_initializer": {"class_name": "Zeros", "config": {}}, "kernel_regularizer": null, "bias_regularizer": null, "activity_regularizer": null, "kernel_constraint": null, "bias_constraint": null}, "name": "conv1d_55", "inbound_nodes": [[["average_pooling1d_81", 0, 0, {}]]]}, {"class_name": "Conv1D", "config": {"name": "conv1d_58", "trainable": true, "dtype": "float32", "filters": 4, "kernel_size": [3], "strides": [1], "padding": "same", "data_format": "channels_last", "dilation_rate": [1], "groups": 1, "activation": "relu", "use_bias": true, "kernel_initializer": {"class_name": "GlorotUniform", "config": {"seed": null}}, "bias_initializer": {"class_name": "Zeros", "config": {}}, "kernel_regularizer": null, "bias_regularizer": null, "activity_regularizer": null, "kernel_constraint": null, "bias_constraint": null}, "name": "conv1d_58", "inbound_nodes": [[["average_pooling1d_84", 0, 0, {}]]]}, {"class_name": "Conv1D", "config": {"name": "conv1d_61", "trainable": true, "dtype": "float32", "filters": 4, "kernel_size": [7], "strides": [1], "padding": "same", "data_format": "channels_last", "dilation_rate": [1], "groups": 1, "activation": "relu", "use_bias": true, "kernel_initializer": {"class_name": "GlorotUniform", "config": {"seed": null}}, "bias_initializer": {"class_name": "Zeros", "config": {}}, "kernel_regularizer": null, "bias_regularizer": null, "activity_regularizer": null, "kernel_constraint": null, "bias_constraint": null}, "name": "conv1d_61", "inbound_nodes": [[["average_pooling1d_90", 0, 0, {}]]]}, {"class_name": "Conv1D", "config": {"name": "conv1d_64", "trainable": true, "dtype": "float32", "filters": 4, "kernel_size": [3], "strides": [1], "padding": "same", "data_format": "channels_last", "dilation_rate": [1], "groups": 1, "activation": "relu", "use_bias": true, "kernel_initializer": {"class_name": "GlorotUniform", "config": {"seed": null}}, "bias_initializer": {"class_name": "Zeros", "config": {}}, "kernel_regularizer": null, "bias_regularizer": null, "activity_regularizer": null, "kernel_constraint": null, "bias_constraint": null}, "name": "conv1d_64", "inbound_nodes": [[["average_pooling1d_93", 0, 0, {}]]]}, {"class_name": "Conv1D", "config": {"name": "conv1d_67", "trainable": true, "dtype": "float32", "filters": 4, "kernel_size": [7], "strides": [1], "padding": "same", "data_format": "channels_last", "dilation_rate": [1], "groups": 1, "activation": "relu", "use_bias": true, "kernel_initializer": {"class_name": "GlorotUniform", "config": {"seed": null}}, "bias_initializer": {"class_name": "Zeros", "config": {}}, "kernel_regularizer": null, "bias_regularizer": null, "activity_regularizer": null, "kernel_constraint": null, "bias_constraint": null}, "name": "conv1d_67", "inbound_nodes": [[["average_pooling1d_99", 0, 0, {}]]]}, {"class_name": "Conv1D", "config": {"name": "conv1d_70", "trainable": true, "dtype": "float32", "filters": 4, "kernel_size": [3], "strides": [1], "padding": "same", "data_format": "channels_last", "dilation_rate": [1], "groups": 1, "activation": "relu", "use_bias": true, "kernel_initializer": {"class_name": "GlorotUniform", "config": {"seed": null}}, "bias_initializer": {"class_name": "Zeros", "config": {}}, "kernel_regularizer": null, "bias_regularizer": null, "activity_regularizer": null, "kernel_constraint": null, "bias_constraint": null}, "name": "conv1d_70", "inbound_nodes": [[["average_pooling1d_102", 0, 0, {}]]]}, {"class_name": "Conv1D", "config": {"name": "conv1d_73", "trainable": true, "dtype": "float32", "filters": 4, "kernel_size": [7], "strides": [1], "padding": "same", "data_format": "channels_last", "dilation_rate": [1], "groups": 1, "activation": "relu", "use_bias": true, "kernel_initializer": {"class_name": "GlorotUniform", "config": {"seed": null}}, "bias_initializer": {"class_name": "Zeros", "config": {}}, "kernel_regularizer": null, "bias_regularizer": null, "activity_regularizer": null, "kernel_constraint": null, "bias_constraint": null}, "name": "conv1d_73", "inbound_nodes": [[["average_pooling1d_108", 0, 0, {}]]]}, {"class_name": "Conv1D", "config": {"name": "conv1d_76", "trainable": true, "dtype": "float32", "filters": 4, "kernel_size": [3], "strides": [1], "padding": "same", "data_format": "channels_last", "dilation_rate": [1], "groups": 1, "activation": "relu", "use_bias": true, "kernel_initializer": {"class_name": "GlorotUniform", "config": {"seed": null}}, "bias_initializer": {"class_name": "Zeros", "config": {}}, "kernel_regularizer": null, "bias_regularizer": null, "activity_regularizer": null, "kernel_constraint": null, "bias_constraint": null}, "name": "conv1d_76", "inbound_nodes": [[["average_pooling1d_111", 0, 0, {}]]]}, {"class_name": "Conv1D", "config": {"name": "conv1d_79", "trainable": true, "dtype": "float32", "filters": 4, "kernel_size": [7], "strides": [1], "padding": "same", "data_format": "channels_last", "dilation_rate": [1], "groups": 1, "activation": "relu", "use_bias": true, "kernel_initializer": {"class_name": "GlorotUniform", "config": {"seed": null}}, "bias_initializer": {"class_name": "Zeros", "config": {}}, "kernel_regularizer": null, "bias_regularizer": null, "activity_regularizer": null, "kernel_constraint": null, "bias_constraint": null}, "name": "conv1d_79", "inbound_nodes": [[["average_pooling1d_117", 0, 0, {}]]]}, {"class_name": "Conv1D", "config": {"name": "conv1d_82", "trainable": true, "dtype": "float32", "filters": 4, "kernel_size": [3], "strides": [1], "padding": "same", "data_format": "channels_last", "dilation_rate": [1], "groups": 1, "activation": "relu", "use_bias": true, "kernel_initializer": {"class_name": "GlorotUniform", "config": {"seed": null}}, "bias_initializer": {"class_name": "Zeros", "config": {}}, "kernel_regularizer": null, "bias_regularizer": null, "activity_regularizer": null, "kernel_constraint": null, "bias_constraint": null}, "name": "conv1d_82", "inbound_nodes": [[["average_pooling1d_120", 0, 0, {}]]]}, {"class_name": "Conv1D", "config": {"name": "conv1d_85", "trainable": true, "dtype": "float32", "filters": 4, "kernel_size": [7], "strides": [1], "padding": "same", "data_format": "channels_last", "dilation_rate": [1], "groups": 1, "activation": "relu", "use_bias": true, "kernel_initializer": {"class_name": "GlorotUniform", "config": {"seed": null}}, "bias_initializer": {"class_name": "Zeros", "config": {}}, "kernel_regularizer": null, "bias_regularizer": null, "activity_regularizer": null, "kernel_constraint": null, "bias_constraint": null}, "name": "conv1d_85", "inbound_nodes": [[["average_pooling1d_126", 0, 0, {}]]]}, {"class_name": "Conv1D", "config": {"name": "conv1d_88", "trainable": true, "dtype": "float32", "filters": 4, "kernel_size": [3], "strides": [1], "padding": "same", "data_format": "channels_last", "dilation_rate": [1], "groups": 1, "activation": "relu", "use_bias": true, "kernel_initializer": {"class_name": "GlorotUniform", "config": {"seed": null}}, "bias_initializer": {"class_name": "Zeros", "config": {}}, "kernel_regularizer": null, "bias_regularizer": null, "activity_regularizer": null, "kernel_constraint": null, "bias_constraint": null}, "name": "conv1d_88", "inbound_nodes": [[["average_pooling1d_129", 0, 0, {}]]]}, {"class_name": "Conv1D", "config": {"name": "conv1d_91", "trainable": true, "dtype": "float32", "filters": 4, "kernel_size": [7], "strides": [1], "padding": "same", "data_format": "channels_last", "dilation_rate": [1], "groups": 1, "activation": "relu", "use_bias": true, "kernel_initializer": {"class_name": "GlorotUniform", "config": {"seed": null}}, "bias_initializer": {"class_name": "Zeros", "config": {}}, "kernel_regularizer": null, "bias_regularizer": null, "activity_regularizer": null, "kernel_constraint": null, "bias_constraint": null}, "name": "conv1d_91", "inbound_nodes": [[["average_pooling1d_135", 0, 0, {}]]]}, {"class_name": "Conv1D", "config": {"name": "conv1d_94", "trainable": true, "dtype": "float32", "filters": 4, "kernel_size": [3], "strides": [1], "padding": "same", "data_format": "channels_last", "dilation_rate": [1], "groups": 1, "activation": "relu", "use_bias": true, "kernel_initializer": {"class_name": "GlorotUniform", "config": {"seed": null}}, "bias_initializer": {"class_name": "Zeros", "config": {}}, "kernel_regularizer": null, "bias_regularizer": null, "activity_regularizer": null, "kernel_constraint": null, "bias_constraint": null}, "name": "conv1d_94", "inbound_nodes": [[["average_pooling1d_138", 0, 0, {}]]]}, {"class_name": "Conv1D", "config": {"name": "conv1d_97", "trainable": true, "dtype": "float32", "filters": 4, "kernel_size": [7], "strides": [1], "padding": "same", "data_format": "channels_last", "dilation_rate": [1], "groups": 1, "activation": "relu", "use_bias": true, "kernel_initializer": {"class_name": "GlorotUniform", "config": {"seed": null}}, "bias_initializer": {"class_name": "Zeros", "config": {}}, "kernel_regularizer": null, "bias_regularizer": null, "activity_regularizer": null, "kernel_constraint": null, "bias_constraint": null}, "name": "conv1d_97", "inbound_nodes": [[["average_pooling1d_144", 0, 0, {}]]]}, {"class_name": "Conv1D", "config": {"name": "conv1d_100", "trainable": true, "dtype": "float32", "filters": 4, "kernel_size": [3], "strides": [1], "padding": "same", "data_format": "channels_last", "dilation_rate": [1], "groups": 1, "activation": "relu", "use_bias": true, "kernel_initializer": {"class_name": "GlorotUniform", "config": {"seed": null}}, "bias_initializer": {"class_name": "Zeros", "config": {}}, "kernel_regularizer": null, "bias_regularizer": null, "activity_regularizer": null, "kernel_constraint": null, "bias_constraint": null}, "name": "conv1d_100", "inbound_nodes": [[["average_pooling1d_147", 0, 0, {}]]]}, {"class_name": "Conv1D", "config": {"name": "conv1d_103", "trainable": true, "dtype": "float32", "filters": 4, "kernel_size": [7], "strides": [1], "padding": "same", "data_format": "channels_last", "dilation_rate": [1], "groups": 1, "activation": "relu", "use_bias": true, "kernel_initializer": {"class_name": "GlorotUniform", "config": {"seed": null}}, "bias_initializer": {"class_name": "Zeros", "config": {}}, "kernel_regularizer": null, "bias_regularizer": null, "activity_regularizer": null, "kernel_constraint": null, "bias_constraint": null}, "name": "conv1d_103", "inbound_nodes": [[["average_pooling1d_153", 0, 0, {}]]]}, {"class_name": "Conv1D", "config": {"name": "conv1d_106", "trainable": true, "dtype": "float32", "filters": 4, "kernel_size": [3], "strides": [1], "padding": "same", "data_format": "channels_last", "dilation_rate": [1], "groups": 1, "activation": "relu", "use_bias": true, "kernel_initializer": {"class_name": "GlorotUniform", "config": {"seed": null}}, "bias_initializer": {"class_name": "Zeros", "config": {}}, "kernel_regularizer": null, "bias_regularizer": null, "activity_regularizer": null, "kernel_constraint": null, "bias_constraint": null}, "name": "conv1d_106", "inbound_nodes": [[["average_pooling1d_156", 0, 0, {}]]]}, {"class_name": "Conv1D", "config": {"name": "conv1d_109", "trainable": true, "dtype": "float32", "filters": 4, "kernel_size": [7], "strides": [1], "padding": "same", "data_format": "channels_last", "dilation_rate": [1], "groups": 1, "activation": "relu", "use_bias": true, "kernel_initializer": {"class_name": "GlorotUniform", "config": {"seed": null}}, "bias_initializer": {"class_name": "Zeros", "config": {}}, "kernel_regularizer": null, "bias_regularizer": null, "activity_regularizer": null, "kernel_constraint": null, "bias_constraint": null}, "name": "conv1d_109", "inbound_nodes": [[["average_pooling1d_162", 0, 0, {}]]]}, {"class_name": "Conv1D", "config": {"name": "conv1d_112", "trainable": true, "dtype": "float32", "filters": 4, "kernel_size": [3], "strides": [1], "padding": "same", "data_format": "channels_last", "dilation_rate": [1], "groups": 1, "activation": "relu", "use_bias": true, "kernel_initializer": {"class_name": "GlorotUniform", "config": {"seed": null}}, "bias_initializer": {"class_name": "Zeros", "config": {}}, "kernel_regularizer": null, "bias_regularizer": null, "activity_regularizer": null, "kernel_constraint": null, "bias_constraint": null}, "name": "conv1d_112", "inbound_nodes": [[["average_pooling1d_165", 0, 0, {}]]]}, {"class_name": "Conv1D", "config": {"name": "conv1d_115", "trainable": true, "dtype": "float32", "filters": 4, "kernel_size": [7], "strides": [1], "padding": "same", "data_format": "channels_last", "dilation_rate": [1], "groups": 1, "activation": "relu", "use_bias": true, "kernel_initializer": {"class_name": "GlorotUniform", "config": {"seed": null}}, "bias_initializer": {"class_name": "Zeros", "config": {}}, "kernel_regularizer": null, "bias_regularizer": null, "activity_regularizer": null, "kernel_constraint": null, "bias_constraint": null}, "name": "conv1d_115", "inbound_nodes": [[["average_pooling1d_171", 0, 0, {}]]]}, {"class_name": "Conv1D", "config": {"name": "conv1d_118", "trainable": true, "dtype": "float32", "filters": 4, "kernel_size": [3], "strides": [1], "padding": "same", "data_format": "channels_last", "dilation_rate": [1], "groups": 1, "activation": "relu", "use_bias": true, "kernel_initializer": {"class_name": "GlorotUniform", "config": {"seed": null}}, "bias_initializer": {"class_name": "Zeros", "config": {}}, "kernel_regularizer": null, "bias_regularizer": null, "activity_regularizer": null, "kernel_constraint": null, "bias_constraint": null},…
": [3, 4, 4], "dtype": "float32"}, {"name": "conv1d_119/bias", "shape": [4], "dtype": "float32"}, {"name": "conv1d_12/kernel", "shape": [7, 1, 8], "dtype": "float32"}, {"name": "conv1d_12/bias", "shape": [8], "dtype": "float32"}, {"name": "conv1d_120/kernel", "shape": [7, 1, 8], "dtype": "float32"}, {"name": "conv1d_120/bias", "shape": [8], "dtype": "float32"}, {"name": "conv1d_121/kernel", "shape": [7, 8, 4], "dtype": "float32"}, {"name": "conv1d_121/bias", "shape": [4], "dtype": "float32"}, {"name": "conv1d_122/kernel", "shape": [7, 4, 4], "dtype": "float32"}, {"name": "conv1d_122/bias", "shape": [4], "dtype": "float32"}, {"name": "conv1d_123/kernel", "shape": [3, 1, 8], "dtype": "float32"}, {"name": "conv1d_123/bias", "shape": [8], "dtype": "float32"}, {"name": "conv1d_124/kernel", "shape": [3, 8, 4], "dtype": "float32"}, {"name": "conv1d_124/bias", "shape": [4], "dtype": "float32"}, {"name": "conv1d_125/kernel", "shape": [3, 4, 4], "dtype": "float32"}, {"name": "conv1d_125/bias", "shape": [4], "dtype": "float32"}, {"name": "conv1d_126/kernel", "shape": [7, 1, 8], "dtype": "float32"}, {"name": "conv1d_126/bias", "shape": [8], "dtype": "float32"}, {"name": "conv1d_127/kernel", "shape": [7, 8, 4], "dtype": "float32"}, {"name": "conv1d_127/bias", "shape": [4], "dtype": "float32"}, {"name": "conv1d_128/kernel", "shape": [7, 4, 4], "dtype": "float32"}, {"name": "conv1d_128/bias", "shape": [4], "dtype": "float32"}, {"name": "conv1d_129/kernel", "shape": [3, 1, 8], "dtype": "float32"}, {"name": "conv1d_129/bias", "shape": [8], "dtype": "float32"}, {"name": "conv1d_13/kernel", "shape": [7, 8, 4], "dtype": "float32"}, {"name": "conv1d_13/bias", "shape": [4], "dtype": "float32"}, {"name": "conv1d_130/kernel", "shape": [3, 8, 4], "dtype": "float32"}, {"name": "conv1d_130/bias", "shape": [4], "dtype": "float32"}, {"name": "conv1d_131/kernel", "shape": [3, 4, 4], "dtype": "float32"}, {"name": "conv1d_131/bias", "shape": [4], "dtype": "float32"}, {"name": "conv1d_132/kernel", "shape": [7, 1, 8], "dtype": "float32"}, {"name": "conv1d_132/bias", "shape": [8], "dtype": "float32"}, {"name": "conv1d_133/kernel", "shape": [7, 8, 4], "dtype": "float32"}, {"name": "conv1d_133/bias", "shape": [4], "dtype": "float32"}, {"name": "conv1d_134/kernel", "shape": [7, 4, 4], "dtype": "float32"}, {"name": "conv1d_134/bias", "shape": [4], "dtype": "float32"}, {"name": "conv1d_135/kernel", "shape": [3, 1, 8], "dtype": "float32"}, {"name": "conv1d_135/bias", "shape": [8], "dtype": "float32"}, {"name": "conv1d_136/kernel", "shape": [3, 8, 4], "dtype": "float32"}, {"name": "conv1d_136/bias", "shape": [4], "dtype": "float32"}, {"name": "conv1d_137/kernel", "shape": [3, 4, 4], "dtype": "float32"}, {"name": "conv1d_137/bias", "shape": [4], "dtype": "float32"}, {"name": "conv1d_138/kernel", "shape": [7, 1, 8], "dtype": "float32"}, {"name": "conv1d_138/bias", "shape": [8], "dtype": "float32"}, {"name": "conv1d_139/kernel", "shape": [7, 8, 4], "dtype": "float32"}, {"name": "conv1d_139/bias", "shape": [4], "dtype": "float32"}, {"name": "conv1d_14/kernel", "shape": [7, 4, 4], "dtype": "float32"}, {"name": "conv1d_14/bias", "shape": [4], "dtype": "float32"}, {"name": "conv1d_140/kernel", "shape": [7, 4, 4], "dtype": "float32"}, {"name": "conv1d_140/bias", "shape": [4], "dtype": "float32"}, {"name": "conv1d_141/kernel", "shape": [3, 1, 8], "dtype": "float32"}, {"name": "conv1d_141/bias", "shape": [8], "dtype": "float32"}, {"name": "conv1d_142/kernel", "shape": [3, 8, 4], "dtype": "float32"}, {"name": "conv1d_142/bias", "shape": [4], "dtype": "float32"}, {"name": "conv1d_143/kernel", "shape": [3, 4, 4], "dtype": "float32"}, {"name": "conv1d_143/bias", "shape": [4], "dtype": "float32"}, {"name": "conv1d_144/kernel", "shape": [7, 1, 8], "dtype": "float32"}, {"name": "conv1d_144/bias", "shape": [8], "dtype": "float32"}, {"name": "conv1d_145/kernel", "shape": [7, 8, 4], "dtype": "float32"}, {"name": "conv1d_145/bias", "shape": [4], "dtype": "float32"}, {"name": "conv1d_146/kernel", "shape": [7, 4, 4], "dtype": "float32"}, {"name": "conv1d_146/bias", "shape": [4], "dtype": "float32"}, {"name": "conv1d_147/kernel", "shape": [3, 1, 8], "dtype": "float32"}, {"name": "conv1d_147/bias", "shape": [8], "dtype": "float32"}, {"name": "conv1d_148/kernel", "shape": [3, 8, 4], "dtype": "float32"}, {"name": "conv1d_148/bias", "shape": [4], "dtype": "float32"}, {"name": "conv1d_149/kernel", "shape": [3, 4, 4], "dtype": "float32"}, {"name": "conv1d_149/bias", "shape": [4], "dtype": "float32"}, {"name": "conv1d_15/kernel", "shape": [3, 1, 8], "dtype": "float32"}, {"name": "conv1d_15/bias", "shape": [8], "dtype": "float32"}, {"name": "conv1d_150/kernel", "shape": [7, 1, 8], "dtype": "float32"}, {"name": "conv1d_150/bias", "shape": [8], "dtype": "float32"}, {"name": "conv1d_151/kernel", "shape": [7, 8, 4], "dtype": "float32"}, {"name": "conv1d_151/bias", "shape": [4], "dtype": "float32"}, {"name": "conv1d_152/kernel", "shape": [7, 4, 4], "dtype": "float32"}, {"name": "conv1d_152/bias", "shape": [4], "dtype": "float32"}, {"name": "conv1d_153/kernel", "shape": [3, 1, 8], "dtype": "float32"}, {"name": "conv1d_153/bias", "shape": [8], "dtype": "float32"}, {"name": "conv1d_154/kernel", "shape": [3, 8, 4], "dtype": "float32"}, {"name": "conv1d_154/bias", "shape": [4], "dtype": "float32"}, {"name": "conv1d_155/kernel", "shape": [3, 4, 4], "dtype": "float32"}, {"name": "conv1d_155/bias", "shape": [4], "dtype": "float32"}, {"name": "conv1d_156/kernel", "shape": [7, 1, 8], "dtype": "float32"}, {"name": "conv1d_156/bias", "shape": [8], "dtype": "float32"}, {"name": "conv1d_157/kernel", "shape": [7, 8, 4], "dtype": "float32"}, {"name": "conv1d_157/bias", "shape": [4], "dtype": "float32"}, {"name": "conv1d_158/kernel", "shape": [7, 4, 4], "dtype": "float32"}, {"name": "conv1d_158/bias", "shape": [4], "dtype": "float32"}, {"name": "conv1d_159/kernel", "shape": [3, 1, 8], "dtype": "float32"}, {"name": "conv1d_159/bias", "shape": [8], "dtype": "float32"}, {"name": "conv1d_16/kernel", "shape": [3, 8, 4], "dtype": "float32"}, {"name": "conv1d_16/bias", "shape": [4], "dtype": "float32"}, {"name": "conv1d_160/kernel", "shape": [3, 8, 4], "dtype": "float32"}, {"name": "conv1d_160/bias", "shape": [4], "dtype": "float32"}, {"name": "conv1d_161/kernel", "shape": [3, 4, 4], "dtype": "float32"}, {"name": "conv1d_161/bias", "shape": [4], "dtype": "float32"}, {"name": "conv1d_162/kernel", "shape": [7, 1, 8], "dtype": "float32"}, {"name": "conv1d_162/bias", "shape": [8], "dtype": "float32"}, {"name": "conv1d_163/kernel", "shape": [7, 8, 4], "dtype": "float32"}, {"name": "conv1d_163/bias", "shape": [4], "dtype": "float32"}, {"name": "conv1d_164/kernel", "shape": [7, 4, 4], "dtype": "float32"}, {"name": "conv1d_164/bias", "shape": [4], "dtype": "float32"}, {"name": "conv1d_165/kernel", "shape": [3, 1, 8], "dtype": "float32"}, {"name": "conv1d_165/bias", "shape": [8], "dtype": "float32"}, {"name": "conv1d_166/kernel", "shape": [3, 8, 4], "dtype": "float32"}, {"name": "conv1d_166/bias", "shape": [4], "dtype": "float32"}, {"name": "conv1d_167/kernel", "shape": [3, 4, 4], "dtype": "float32"}, {"name": "conv1d_167/bias", "shape": [4], "dtype": "float32"}, {"name": "conv1d_168/kernel", "shape": [7, 1, 8], "dtype": "float32"}, {"name": "conv1d_168/bias", "shape": [8], "dtype": "float32"}, {"name": "conv1d_169/kernel", "shape": [7, 8, 4], "dtype": "float32"}, {"name": "conv1d_169/bias", "shape": [4], "dtype": "float32"}, {"name": "conv1d_17/kernel", "shape": [3, 4, 4], "dtype": "float32"}, {"name": "conv1d_17/bias", "shape": [4], "dtype": "float32"}, {"name": "conv1d_170/kernel", "shape": [7, 4, 4], "dtype": "float32"}, {"name": "conv1d_170/bias", "shape": [4], "dtype": "float32"}, {"name": "conv1d_171/kernel", "shape": [3, 1, 8], "dtype": "float32"}, {"name": "conv1d_171/bias", "shape": [8], "dtype": "float32"}, {"name": "conv1d_172/kernel", "shape": [3, 8, 4], "dtype": "float32"}, {"name": "conv1d_172/bias", "shape": [4], "dtype": "float32"}, {"name": "conv1d_173/kernel", "shape": [3, 4, 4], "dtype": "float32"}, {"name": "conv1d_173/bias", "shape": [4], "dtype": "float32"}, {"name": "conv1d_174/kernel", "shape": [7, 1, 8], "dtype": "float32"}, {"name": "conv1d_174/bias", "shape": [8], "dtype": "float32"}, {"name": "conv1d_175/kernel", "shape": [7, 8, 4], "dtype": "float32"}, {"name": "conv1d_175/bias", "shape": [4], "dtype": "float32"}, {"name": "conv1d_176/kernel", "shape": [7, 4, 4], "dtype": "float32"}, {"name": "conv1d_176/bias", "shape": [4], "dtype": "float32"}, {"name": "conv1d_177/kernel", "shape": [3, 1, 8], "dtype": "float32"}, {"name": "conv1d_177/bias", "shape": [8], "dtype": "float32"}, {"name": "conv1d_178/kernel", "shape": [3, 8, 4], "dtype": "float32"}, {"name": "conv1d_178/bias", "shape": [4], "dtype": "float32"}, {"name": "conv1d_179/kernel", "shape": [3, 4, 4], "dtype": "float32"}, {"name": "conv1d_179/bias", "shape": [4], "dtype": "float32"}, {"name": "conv1d_18/kernel", "shape": [7, 1, 8], "dtype": "float32"}, {"name": "conv1d_18/bias", "shape": [8], "dtype": "float32"}, {"name": "conv1d_180/kernel", "shape": [7, 1, 8], "dtype": "float32"}, {"name": "conv1d_180/bias", "shape": [8], "dtype": "float32"}, {"name": "conv1d_181/kernel", "shape": [7, 8, 4], "dtype": "float32"}, {"name": "conv1d_181/bias", "shape": [4], "dtype": "float32"}, {"name": "conv1d_182/kernel", "shape": [7, 4, 4], "dtype": "float32"}, {"name": "conv1d_182/bias", "shape": [4], "dtype": "float32"}, {"name": "conv1d_183/kernel", "shape": [3, 1, 8], "dtype": "float32"}, {"name": "conv1d_183/bias", "shape": [8], "dtype": "float32"}, {"name": "conv1d_184/kernel", "shape": [3, 8, 4], "dtype": "float32"}, {"name": "conv1d_184/bias", "shape": [4], "dtype": "float32"}, {"name": "conv1d_185/kernel", "shape": [3, 4, 4], "dtype": "float32"}, {"name": "conv1d_185/bias", "shape": [4], "dtype": "float32"}, {"name": "conv1d_186/kernel", "shape": [7, 1, 8], "dtype": "float32"}, {"name": "conv1d_186/bias", "shape": [8], "dtype": "float32"}, {"name": "conv1d_187/kernel", "shape": [7, 8, 4], "dtype": "float32"}, {"name": "conv1d_187/bias", "shape": [4], "dtype": "float32"}, {"name": "conv1d_188/kernel", "shape": [7, 4, 4], "dtype": "float32"}, {"name": "conv1d_188/bias", "shape": [4], "dtype": "float32"}, {"name": "conv1d_189/kernel", "shape": [3, 1, 8], "dtype": "float32"}, {"name": "conv1d_189/bias", "shape": [8], "dtype": "float32"}, {"name": "conv1d_19/kernel", "shape": [7, 8, 4], "dtype": "float32"}, {"name": "conv1d_19/bias", "shape": [4], "dtype": "float32"}, {"name": "conv1d_190/kernel", "shape": [3, 8, 4], "dtype": "float32"}, {"name": "conv1d_190/bias", "shape": [4], "dtype": "float32"}, {"name": "conv1d_191/kernel", "shape": [3, 4, 4], "dtype": "float32"}, {"name": "conv1d_191/bias", "shape": [4], "dtype": "float32"}, {"name": "conv1d_192/kernel", "shape": [7, 1, 8], "dtype": "float32"}, {"name": "conv1d_192/bias", "shape": [8], "dtype": "float32"}, {"name": "conv1d_193/kernel", "shape": [7, 8, 4], "dtype": "float32"}, {"name": "conv1d_193/bias", "shape": [4], "dtype": "float32"}, {"name": "conv1d_194/kernel", "shape": [7, 4, 4], "dtype": "float32"}, {"name": "conv1d_194/bias", "shape": [4], "dtype": "float32"}, {"name": "conv1d_195/kernel", "shape": [3, 1, 8], "dtype": "float32"}, {"name": "conv1d_195/bias", "shape": [8], "dtype": "float32"}, {"name": "conv1d_196/kernel", "shape": [3, 8, 4], "dtype": "float32"}, {"name": "conv1d_196/bias", "shape": [4], "dtype": "float32"}, {"name": "conv1d_197/kernel", "shape": [3, 4, 4], "dtype": "float32"}, {"name": "conv1d_197/bias", "shape": [4], "dtype": "float32"}, {"name": "conv1d_198/kernel", "shape": [7, 1, 8], "dtype": "float32"}, {"name": "conv1d_198/bias", "shape": [8], "dtype": "float32"}, {"name": "conv1d_199/kernel", "shape": [7, 8, 4], "dtype": "float32"}, {"name": "conv1d_199/bias", "shape": [4], "dtype": "float32"}, {"name": "conv1d_2/kernel", "shape": [7, 4, 4], "dtype": "float32"}, {"name": "conv1d_2/bias", "shape": [4], "dtype": "float32"}, {"name": "conv1d_20/kernel", "shape": [7, 4, 4], "dtype": "float32"}, {"name": "conv1d_20/bias", "shape": [4], "dtype": "float32"}, {"name": "conv1d_200/kernel", "shape": [7, 4, 4], "dtype": "float32"}, {"name": "conv1d_200/bias", "shape": [4], "dtype": "float32"}, {"name": "conv1d_201/kernel", "shape": [3, 1, 8], "dtype": "float32"}, {"name": "conv1d_201/bias", "shape": [8], "dtype": "float32"}, {"name": "conv1d_202/kernel", "shape": [3, 8, 4], "dtype": "float32"}, {"name": "conv1d_202/bias", "shape": [4], "dtype": "float32"}, {"name": "conv1d_203/kernel", "shape": [3, 4, 4], "dtype": "float32"}, {"name": "conv1d_203/bias", "shape": [4], "dtype": "float32"}, {"name": "conv1d_204/kernel", "shape": [7, 1, 8], "dtype": "float32"}, {"name": "conv1d_204/bias", "shape": [8], "dtype": "float32"}, {"name": "conv1d_205/kernel", "shape": [7, 8, 4], "dtype": "float32"}, {"name": "conv1d_205/bias", "shape": [4], "dtype": "float32"}, {"name": "conv1d_206/kernel", "shape": [7, 4, 4], "dtype": "float32"}, {"name": "conv1d_206/bias", "shape": [4], "dtype": "float32"}, {"name": "conv1d_207/kernel", "shape": [3, 1, 8], "dtype": "float32"}, {"name": "conv1d_207/bias", "shape": [8], "dtype": "float32"}, {"name": "conv1d_208/kernel", "shape": [3, 8, 4], "dtype": "float32"}, {"name": "conv1d_208/bias", "shape": [4], "dtype": "float32"}, {"name": "conv1d_209/kernel", "shape": [3, 4, 4], "dtype": "float32"}, {"name": "conv1d_209/bias", "shape": [4], "dtype": "float32"}, {"name": "conv1d_21/kernel", "shape": [3, 1, 8], "dtype": "float32"}, {"name": "conv1d_21/bias", "shape": [8], "dtype": "float32"}, {"name": "conv1d_210/kernel", "shape": [7, 1, 8], "dtype": "float32"}, {"name": "conv1d_210/bias", "shape": [8], "dtype": "float32"}, {"name": "conv1d_211/kernel", "shape": [7, 8, 4], "dtype": "float32"}, {"name": "conv1d_211/bias", "shape": [4], "dtype": "float32"}, {"name": "conv1d_212/kernel", "shape": [7, 4, 4], "dtype": "float32"}, {"name": "conv1d_212/bias", "shape": [4], "dtype": "float32"}, {"name": "conv1d_213/kernel", "shape": [3, 1, 8], "dtype": "float32"}, {"name": "conv1d_213/bias", "shape": [8], "dtype": "float32"}, {"name": "conv1d_214/kernel", "shape": [3, 8, 4], "dtype": "float32"}, {"name": "conv1d_214/bias", "shape": [4], "dtype": "float32"}, {"name": "conv1d_215/kernel", "shape": [3, 4, 4], "dtype": "float32"}, {"name": "conv1d_215/bias", "shape": [4], "dtype": "float32"}, {"name": "conv1d_216/kernel", "shape": [7, 1, 8], "dtype": "float32"}, {"name": "conv1d_216/bias", "shape": [8], "dtype": "float32"}, {"name": "conv1d_217/kernel", "shape": [7, 8, 4], "dtype": "float32"}, {"name": "conv1d_217/bias", "shape": [4], "dtype": "float32"}, {"name": "conv1d_218/kernel", "shape": [7, 4, 4], "dtype": "float32"}, {"name": "conv1d_218/bias", "shape": [4], "dtype": "float32"}, {"name": "conv1d_219/kernel", "shape": [3, 1, 8], "dtype": "float32"}, {"name": "conv1d_219/bias", "shape": [8], "dtype": "float32"}, {"name": "conv1d_22/kernel", "shape": [3, 8, 4], "dtype": "float32"}, {"name": "conv1d_22/bias", "shape": [4], "dtype": "float32"}, {"name": "conv1d_220/kernel", "shape": [3, 8, 4], "dtype": "float32"}, {"name": "conv1d_220/bias", "shape": [4], "dtype": "float32"}, {"name": "conv1d_221/kernel", "shape": [3, 4, 4], "dtype": "float32"}, {"name": "conv1d_221/bias", "shape": [4], "dtype": "float32"}, {"name": "conv1d_222/kernel", "shape": [7, 1, 8], "dtype": "float32"}, {"name": "conv1d_222/bias", "shape": [8], "dtype": "float32"}, {"name": "conv1d_223/kernel", "shape": [7, 8, 4], "dtype": "float32"}, {"name": "conv1d_223/bias", "shape": [4], "dtype": "float32"}, {"name": "conv1d_224/kernel", "shape": [7, 4, 4], "dtype": "float32"}, {"name": "conv1d_224/bias", "shape": [4], "dtype": "float32"}, {"name": "conv1d_225/kernel", "shape": [3, 1, 8], "dtype": "float32"}, {"name": "conv1d_225/bias", "shape": [8], "dtype": "float32"}, {"name": "conv1d_226/kernel", "shape": [3, 8, 4], "dtype": "float32"}, {"name": "conv1d_226/bias", "shape": [4], "dtype": "float32"}, {"name": "conv1d_227/kernel", "shape": [3, 4, 4], "dtype": "float32"}, {"name": "conv1d_227/bias", "shape": [4], "dtype": "float32"}, {"name": "conv1d_228/kernel", "shape": [7, 1, 8], "dtype": "float32"}, {"name": "conv1d_228/bias", "shape": [8], "dtype": "float32"}, {"name": "conv1d_229/kernel", "shape": [7, 8, 4], "dtype": "float32"}, {"name": "conv1d_229/bias", "shape": [4], "dtype": "float32"}, {"name": "conv1d_23/kernel", "shape": [3, 4, 4], "dtype": "float32"}, {"name": "conv1d_23/bias", "shape": [4], "dtype": "float32"}, {"name": "conv1d_230/kernel", "shape": [7, 4, 4], "dtype": "float32"}, {"name": "conv1d_230/bias", "shape": [4], "dtype": "float32"}, {"name": "conv1d_231/kernel", "shape": [3, 1, 8], "dtype": "float32"}, {"name": "conv1d_231/bias", "shape": [8], "dtype": "float32"}, {"name": "conv1d_232/kernel", "shape": [3, 8, 4], "dtype": "float32"}, {"name": "conv1d_232/bias", "shape": [4], "dtype": "float32"}, {"name": "conv1d_233/kernel", "shape": [3, 4, 4], "dtype": "float32"}, {"name": "conv1d_233/bias", "shape": [4], "dtype": "float32"}, {"name": "conv1d_234/kernel", "shape": [7, 1, 8], "dtype": "float32"}, {"name": "conv1d_234/bias", "shape": [8], "dtype": "float32"}, {"name": "conv1d_235/kernel", "shape": [7, 8, 4], "dtype": "float32"}, {"name": "conv1d_235/bias", "shape": [4], "dtype": "float32"}, {"name": "conv1d_236/kernel", "shape": [7, 4, 4], "dtype": "float32"}, {"name": "conv1d_236/bias", "shape": [4], "dtype": "float32"}, {"name": "conv1d_237/kernel", "shape": [3, 1, 8], "dtype": "float32"}, {"name": "conv1d_237/bias", "shape": [8], "dtype": "float32"}, {"name": "conv1d_238/kernel", "shape": [3, 8, 4], "dtype": "float32"}, {"name": "conv1d_238/bias", "shape": [4], "dtype": "float32"}, {"name": "conv1d_239/kernel", "shape": [3, 4, 4], "dtype": "float32"}, {"name": "conv1d_239/bias", "shape": [4], "dtype": "float32"}, {"name": "conv1d_24/kernel", "shape": [7, 1, 8], "dtype": "float32"}, {"name": "conv1d_24/bias", "shape": [8], "dtype": "float32"}, {"name": "conv1d_240/kernel", "shape": [7, 1, 8], "dtype": "float32"}, {"name": "conv1d_240/bias", "shape": [8], "dtype": "float32"}, {"name": "conv1d_241/kernel", "shape": [7, 8, 4], "dtype": "float32"}, {"name": "conv1d_241/bias", "shape": [4], "dtype": "float32"}, {"name": "conv1d_242/kernel", "shape": [7, 4, 4], "dtype": "float32"}, {"name": "conv1d_242/bias", "shape": [4], "dtype": "float32"}, {"name": "conv1d_243/kernel", "shape": [3, 1, 8], "dtype": "float32"}, {"name": "conv1d_243/bias", "shape": [8], "dtype": "float32"}, {"name": "conv1d_244/kernel", "shape": [3, 8, 4], "dtype": "float32"}, {"name": "conv1d_244/bias", "shape": [4], "dtype": "float32"}, {"name": "conv1d_245/kernel", "shape": [3, 4, 4], "dtype": "float32"}, {"name": "conv1d_245/bias", "shape": [4], "dtype": "float32"}, {"name": "conv1d_246/kernel", "shape": [7, 1, 8], "dtype": "float32"}, {"name": "conv1d_246/bias", "shape": [8], "dtype": "float32"}, {"name": "conv1d_247/kernel", "shape": [7, 8, 4], "dtype": "float32"}, {"name": "conv1d_247/bias", "shape": [4], "dtype": "float32"}, {"name": "conv1d_248/kernel", "shape": [7, 4, 4], "dtype": "float32"}, {"name": "conv1d_248/bias", "shape": [4], "dtype": "float32"}, {"name": "conv1d_249/kernel", "shape": [3, 1, 8], "dtype": "float32"}, {"name": "conv1d_249/bias", "shape": [8], "dtype": "float32"}, {"name": "conv1d_25/kernel", "shape": [7, 8, 4], "dtype": "float32"}, {"name": "conv1d_25/bias", "shape": [4], "dtype": "float32"}, {"name": "conv1d_250/kernel", "shape": [3, 8, 4], "dtype": "float32"}, {"name": "conv1d_250/bias", "shape": [4], "dtype": "float32"}, {"name": "conv1d_251/kernel", "shape": [3, 4, 4], "dtype": "float32"}, {"name": "conv1d_251/bias", "shape": [4], "dtype": "float32"}, {"name": "conv1d_252/kernel", "shape": [7, 1, 8], "dtype": "float32"}, {"name": "conv1d_252/bias", "shape": [8], "dtype": "float32"}, {"name": "conv1d_253/kernel", "shape": [7, 8, 4], "dtype": "float32"}, {"name": "conv1d_253/bias", "shape": [4], "dtype": "float32"}, {"name": "conv1d_254/kernel", "shape": [7, 4, 4], "dtype": "float32"}, {"name": "conv1d_254/bias", "shape": [4], "dtype": "float32"}, {"name": "conv1d_255/kernel", "shape": [3, 1, 8], "dtype": "float32"}, {"name": "conv1d_255/bias", "shape": [8], "dtype": "float32"}, {"name": "conv1d_256/kernel", "shape": [3, 8, 4], "dtype": "float32"}, {"name": "conv1d_256/bias", "shape": [4], "dtype": "float32"}, {"name": "conv1d_257/kernel", "shape": [3, 4, 4], "dtype": "float32"}, {"name": "conv1d_257/bias", "shape": [4], "dtype": "float32"}, {"name": "conv1d_258/kernel", "shape": [7, 1, 8], "dtype": "float32"}, {"name": "conv1d_258/bias", "shape": [8], "dtype": "float32"}, {"name": "conv1d_259/kernel", "shape": [7, 8, 4], "dtype": "float32"}, {"name": "conv1d_259/bias", "shape": [4], "dtype": "float32"}, {"name": "conv1d_26/kernel", "shape": [7, 4, 4], "dtype": "float32"}, {"name": "conv1d_26/bias", "shape": [4], "dtype": "float32"}, {"name": "conv1d_260/kernel", "shape": [7, 4, 4], "dtype": "float32"}, {"name": "conv1d_260/bias", "shape": [4], "dtype": "float32"}, {"name": "conv1d_261/kernel", "shape": [3, 1, 8], "dtype": "float32"}, {"name": "conv1d_261/bias", "shape": [8], "dtype": "float32"}, {"name": "conv1d_262/kernel", "shape": [3, 8, 4], "dtype": "float32"}, {"name": "conv1d_262/bias", "shape": [4], "dtype": "float32"}, {"name": "conv1d_263/kernel", "shape": [3, 4, 4], "dtype": "float32"}, {"name": "conv1d_263/bias", "shape": [4], "dtype": "float32"}, {"name": "conv1d_264/kernel", "shape": [7, 1, 8], "dtype": "float32"}, {"name": "conv1d_264/bias", "shape": [8], "dtype": "float32"}, {"name": "conv1d_265/kernel", "shape": [7, 8, 4], "dtype": "float32"}, {"name": "conv1d_265/bias", "shape": [4], "dtype": "float32"}, {"name": "conv1d_266/kernel", "shape": [7, 4, 4], "dtype": "float32"}, {"name": "conv1d_266/bias", "shape": [4], "dtype": "float32"}, {"name": "conv1d_267/kernel", "shape": [3, 1, 8], "dtype": "float32"}, {"name": "conv1d_267/bias", "shape": [8], "dtype": "float32"}, {"name": "conv1d_268/kernel", "shape": [3, 8, 4], "dtype": "float32"}, {"name": "conv1d_268/bias", "shape": [4], "dtype": "float32"}, {"name": "conv1d_269/kernel", "shape": [3, 4, 4], "dtype": "float32"}, {"name": "conv1d_269/bias", "shape": [4], "dtype": "float32"}, {"name": "conv1d_27/kernel", "shape": [3, 1, 8], "dtype": "float32"}, {"name": "conv1d_27/bias", "shape": [8], "dtype": "float32"}, {"name": "conv1d_270/kernel", "shape": [7, 1, 8], "dtype": "float32"}, {"name": "conv1d_270/bias", "shape": [8], "dtype": "float32"}, {"name": "conv1d_271/kernel", "shape": [7, 8, 4], "dtype": "float32"}, {"name": "conv1d_271/bias", "shape": [4], "dtype": "float32"}, {"name": "conv1d_272/kernel", "shape": [7, 4, 4], "dtype": "float32"}, {"name": "conv1d_272/bias", "shape": [4], "dtype": "float32"}, {"name": "conv1d_273/kernel", "shape": [3, 1, 8], "dtype": "float32"}, {"name": "conv1d_273/bias", "shape": [8], "dtype": "float32"}, {"name": "conv1d_274/kernel", "shape": [3, 8, 4], "dtype": "float32"}, {"name": "conv1d_274/bias", "shape": [4], "dtype": "float32"}, {"name": "conv1d_275/kernel", "shape": [3, 4, 4], "dtype": "float32"}, {"name": "conv1d_275/bias", "shape": [4], "dtype": "float32"}, {"name": "conv1d_276/kernel", "shape": [7, 1, 8], "dtype": "float32"}, {"name": "conv1d_276/bias", "shape": [8], "dtype": "float32"}, {"name": "conv1d_277/kernel", "shape": [7, 8, 4], "dtype": "float32"}, {"name": "conv1d_277/bias", "shape": [4], "dtype": "float32"}, {"name": "conv1d_278/kernel", "shape": [7, 4, 4], "dtype": "float32"}, {"name": "conv1d_278/bias", "shape": [4], "dtype": "float32"}, {"name": "conv1d_279/kernel", "shape": [3, 1, 8], "dtype": "float32"}, {"name": "conv1d_279/bias", "shape": [8], "dtype": "float32"}, {"name": "conv1d_28/kernel", "shape": [3, 8, 4], "dtype": "float32"}, {"name": "conv1d_28/bias", "shape": [4], "dtype": "float32"}, {"name": "conv1d_280/kernel", "shape": [3, 8, 4], "dtype": "float32"}, {"name": "conv1d_280/bias", "shape": [4], "dtype": "float32"}, {"name": "conv1d_281/kernel", "shape": [3, 4, 4], "dtype": "float32"}, {"name": "conv1d_281/bias", "shape": [4], "dtype": "float32"}, {"name": "conv1d_282/kernel", "shape": [7, 1, 8], "dtype": "float32"}, {"name": "conv1d_282/bias", "shape": [8], "dtype": "float32"}, {"name": "conv1d_283/kernel", "shape": [7, 8, 4], "dtype": "float32"}, {"name": "conv1d_283/bias", "shape": [4], "dtype": "float32"}, {"name": "conv1d_284/kernel", "shape": [7, 4, 4], "dtype": "float32"}, {"name": "conv1d_284/bias", "shape": [4], "dtype": "float32"}, {"name": "conv1d_285/kernel", "shape": [3, 1, 8], "dtype": "float32"}, {"name": "conv1d_285/bias", "shape": [8], "dtype": "float32"}, {"name": "conv1d_286/kernel", "shape": [3, 8, 4], "dtype": "float32"}, {"name": "conv1d_286/bias", "shape": [4], "dtype": "float32"}, {"name": "conv1d_287/kernel", "shape": [3, 4, 4], "dtype": "float32"}, {"name": "conv1d_287/bias", "shape": [4], "dtype": "float32"}, {"name": "conv1d_288/kernel", "shape": [7, 1, 8], "dtype": "float32"}, {"name": "conv1d_288/bias", "shape": [8], "dtype": "float32"}, {"name": "conv1d_289/kernel", "shape": [7, 8, 4], "dtype": "float32"}, {"name": "conv1d_289/bias", "shape": [4], "dtype": "float32"}, {"name": "conv1d_29/kernel", "shape": [3, 4, 4], "dtype": "float32"}, {"name": "conv1d_29/bias", "shape": [4], "dtype": "float32"}, {"name": "conv1d_290/kernel", "shape": [7, 4, 4], "dtype": "float32"}, {"name": "conv1d_290/bias", "shape": [4], "dtype": "float32"}, {"name": "conv1d_291/kernel", "shape": [3, 1, 8], "dtype": "float32"}, {"name": "conv1d_291/bias", "shape": [8], "dtype": "float32"}, {"name": "conv1d_292/kernel", "shape": [3, 8, 4], "dtype": "float32"}, {"name": "conv1d_292/bias", "shape": [4], "dtype": "float32"}, {"name": "conv1d_293/kernel", "shape": [3, 4, 4], "dtype": "float32"}, {"name": "conv1d_293/bias", "shape": [4], "dtype": "float32"}, {"name": "conv1d_294/kernel", "shape": [7, 1, 8], "dtype": "float32"}, {"name": "conv1d_294/bias", "shape": [8], "dtype": "float32"}, {"name": "conv1d_295/kernel", "shape": [7, 8, 4], "dtype": "float32"}, {"name": "conv1d_295/bias", "shape": [4], "dtype": "float32"}, {"name": "conv1d_296/kernel", "shape": [7, 4, 4], "dtype": "float32"}, {"name": "conv1d_296/bias", "shape": [4], "dtype": "float32"}, {"name": "conv1d_297/kernel", "shape": [3, 1, 8], "dtype": "float32"}, {"name": "conv1d_297/bias", "shape": [8], "dtype": "float32"}, {"name": "conv1d_298/kernel", "shape": [3, 8, 4], "dtype": "float32"}, {"name": "conv1d_298/bias", "shape": [4], "dtype": "float32"}, {"name": "conv1d_299/kernel", "shape": [3, 4, 4], "dtype": "float32"}, {"name": "conv1d_299/bias", "shape": [4], "dtype": "float32"}, {"name": "conv1d_3/kernel", "shape": [3, 1, 8], "dtype": "float32"}, {"name": "conv1d_3/bias", "shape": [8], "dtype": "float32"}, {"name": "conv1d_30/kernel", "shape": [7, 1, 8], "dtype": "float32"}, {"name": "conv1d_30/bias", "shape": [8], "dtype": "float32"}, {"name": "conv1d_300/kernel", "shape": [7, 1, 8], "dtype": "float32"}, {"name": "conv1d_300/bias", "shape": [8], "dtype": "float32"}, {"name": "conv1d_301/kernel", "shape": [7, 8, 4], "dtype": "float32"}, {"name": "conv1d_301/bias", "shape": [4], "dtype": "float32"}, {"name": "conv1d_302/kernel", "shape": [7, 4, 4], "dtype": "float32"}, {"name": "conv1d_302/bias", "shape": [4], "dtype": "float32"}, {"name": "conv1d_303/kernel", "shape": [3, 1, 8], "dtype": "float32"}, {"name": "conv1d_303/bias", "shape": [8], "dtype": "float32"}, {"name": "conv1d_304/kernel", "shape": [3, 8, 4], "dtype": "float32"}, {"name": "conv1d_304/bias", "shape": [4], "dtype": "float32"}, {"name": "conv1d_305/kernel", "shape": [3, 4, 4], "dtype": "float32"}, {"name": "conv1d_305/bias", "shape": [4], "dtype": "float32"}, {"name": "conv1d_306/kernel", "shape": [7, 1, 8], "dtype": "float32"}, {"name": "conv1d_306/bias", "shape": [8], "dtype": "float32"}, {"name": "conv1d_307/kernel", "shape": [7, 8, 4], "dtype": "float32"}, {"name": "conv1d_307/bias", "shape": [4], "dtype": "float32"}, {"name": "conv1d_308/kernel", "shape": [7, 4, 4], "dtype": "float32"}, {"name": "conv1d_308/bias", "shape": [4], "dtype": "float32"}, {"name": "conv1d_309/kernel", "shape": [3, 1, 8], "dtype": "float32"}, {"name": "conv1d_309/bias", "shape": [8], "dtype": "float32"}, {"name": "conv1d_31/kernel", "shape": [7, 8, 4], "dtype": "float32"}, {"name": "conv1d_31/bias", "shape": [4], "dtype": "float32"}, {"name": "conv1d_310/kernel", "shape": [3, 8, 4], "dtype": "float32"}, {"name": "conv1d_310/bias", "shape": [4], "dtype": "float32"}, {"name": "conv1d_311/kernel", "shape": [3, 4, 4], "dtype": "float32"}, {"name": "conv1d_311/bias", "shape": [4], "dtype": "float32"}, {"name": "conv1d_312/kernel", "shape": [7, 1, 8], "dtype": "float32"}, {"name": "conv1d_312/bias", "shape": [8], "dtype": "float32"}, {"name": "conv1d_313/kernel", "shape": [7, 8, 4], "dtype": "float32"}, {"name": "conv1d_313/bias", "shape": [4], "dtype": "float32"}, {"name": "conv1d_314/kernel", "shape": [7, 4, 4], "dtype": "float32"}, {"name": "conv1d_314/bias", "shape": [4], "dtype": "float32"}, {"name": "conv1d_315/kernel", "shape": [3, 1, 8], "dtype": "float32"}, {"name": "conv1d_315/bias", "shape": [8], "dtype": "float32"}, {"name": "conv1d_316/kernel", "shape": [3, 8, 4], "dtype": "float32"}, {"name": "conv1d_316/bias", "shape": [4], "dtype": "float32"}, {"name": "conv1d_317/kernel", "shape": [3, 4, 4], "dtype": "float32"}, {"name": "conv1d_317/bias", "shape": [4], "dtype": "float32"}, {"name": "conv1d_318/kernel", "shape": [7, 1, 8], "dtype": "float32"}, {"name": "conv1d_318/bias", "shape": [8], "dtype": "float32"}, {"name": "conv1d_319/kernel", "shape": [7, 8, 4], "dtype": "float32"}, {"name": "conv1d_319/bias", "shape": [4], "dtype": "float32"}, {"name": "conv1d_32/kernel", "shape": [7, 4, 4], "dtype": "float32"}, {"name": "conv1d_32/bias", "shape": [4], "dtype": "float32"}, {"name": "conv1d_320/kernel", "shape": [7, 4, 4], "dtype": "float32"}, {"name": "conv1d_320/bias", "shape": [4], "dtype": "float32"}, {"name": "conv1d_321/kernel", "shape": [3, 1, 8], "dtype": "float32"}, {"name": "conv1d_321/bias", "shape": [8], "dtype": "float32"}, {"name": "conv1d_322/kernel", "shape": [3, 8, 4], "dtype": "float32"}, {"name": "conv1d_322/bias", "shape": [4], "dtype": "float32"}, {"name": "conv1d_323/kernel", "shape": [3, 4, 4], "dtype": "float32"}, {"name": "conv1d_323/bias", "shape": [4], "dtype": "float32"}, {"name": "conv1d_324/kernel", "shape": [7, 1, 8], "dtype": "float32"}, {"name": "conv1d_324/bias", "shape": [8], "dtype": "float32"}, {"name": "conv1d_325/kernel", "shape": [7, 8, 4], "dtype": "float32"}, {"name": "conv1d_325/bias", "shape": [4], "dtype": "float32"}, {"name": "conv1d_326/kernel", "shape": [7, 4, 4], "dtype": "float32"}, {"name": "conv1d_326/bias", "shape": [4], "dtype": "float32"}, {"name": "conv1d_327/kernel", "shape": [3, 1, 8], "dtype": "float32"}, {"name": "conv1d_327/bias", "shape": [8], "dtype": "float32"}, {"name": "conv1d_328/kernel", "shape": [3, 8, 4], "dtype": "float32"}, {"name": "conv1d_328/bias", "shape": [4], "dtype": "float32"}, {"name": "conv1d_329/kernel", "shape": [3, 4, 4], "dtype": "float32"}, {"name": "conv1d_329/bias", "shape": [4], "dtype": "float32"}, {"name": "conv1d_33/kernel", "shape": [3, 1, 8], "dtype": "float32"}, {"name": "conv1d_33/bias", "shape": [8], "dtype": "float32"}, {"name": "conv1d_330/kernel", "shape": [7, 1, 8], "dtype": "float32"}, {"name": "conv1d_330/bias", "shape": [8], "dtype": "float32"}, {"name": "conv1d_331/kernel", "shape": [7, 8, 4], "dtype": "float32"}, {"name": "conv1d_331/bias", "shape": [4], "dtype": "float32"}, {"name": "conv1d_332/kernel", "shape": [7, 4, 4], "dtype": "float32"}, {"name": "conv1d_332/bias", "shape": [4], "dtype": "float32"}, {"name": "conv1d_333/kernel", "shape": [3, 1, 8], "dtype": "float32"}, {"name": "conv1d_333/bias", "shape": [8], "dtype": "float32"}, {"name": "conv1d_334/kernel", "shape": [3, 8, 4], "dtype": "float32"}, {"name": "conv1d_334/bias", "shape": [4], "dtype": "float32"}, {"name": "conv1d_335/kernel", "shape": [3, 4, 4], "dtype": "float32"}, {"name": "conv1d_335/bias", "shape": [4], "dtype": "float32"}, {"name": "conv1d_336/kernel", "shape": [7, 1, 8], "dtype": "float32"}, {"name": "conv1d_336/bias", "shape": [8], "dtype": "float32"}, {"name": "conv1d_337/kernel", "shape": [7, 8, 4], "dtype": "float32"}, {"name": "conv1d_337/bias", "shape": [4], "dtype": "float32"}, {"name": "conv1d_338/kernel", "shape": [7, 4, 4], "dtype": "float32"}, {"name": "conv1d_338/bias", "shape": [4], "dtype": "float32"}, {"name": "conv1d_339/kernel", "shape": [3, 1, 8], "dtype": "float32"}, {"name": "conv1d_339/bias", "shape": [8], "dtype": "float32"}, {"name": "conv1d_34/kernel", "shape": [3, 8, 4], "dtype": "float32"}, {"name": "conv1d_34/bias", "shape": [4], "dtype": "float32"}, {"name": "conv1d_340/kernel", "shape": [3, 8, 4], "dtype": "float32"}, {"name": "conv1d_340/bias", "shape": [4], "dtype": "float32"}, {"name": "conv1d_341/kernel", "shape": [3, 4, 4], "dtype": "float32"}, {"name": "conv1d_341/bias", "shape": [4], "dtype": "float32"}, {"name": "conv1d_342/kernel", "shape": [7, 1, 8], "dtype": "float32"}, {"name": "conv1d_342/bias", "shape": [8], "dtype": "float32"}, {"name": "conv1d_343/kernel", "shape": [7, 8, 4], "dtype": "float32"}, {"name": "conv1d_343/bias", "shape": [4], "dtype": "float32"}, {"name": "conv1d_344/kernel", "shape": [7, 4, 4], "dtype": "float32"}, {"name": "conv1d_344/bias", "shape": [4], "dtype": "float32"}, {"name": "conv1d_345/kernel", "shape": [3, 1, 8], "dtype": "float32"}, {"name": "conv1d_345/bias", "shape": [8], "dtype": "float32"}, {"name": "conv1d_346/kernel", "shape": [3, 8, 4], "dtype": "float32"}, {"name": "conv1d_346/bias", "shape": [4], "dtype": "float32"}, {"name": "conv1d_347/kernel", "shape": [3, 4, 4], "dtype": "float32"}, {"name": "conv1d_347/bias", "shape": [4], "dtype": "float32"}, {"name": "conv1d_348/kernel", "shape": [7, 1, 8], "dtype": "float32"}, {"name": "conv1d_348/bias", "shape": [8], "dtype": "float32"}, {"name": "conv1d_349/kernel", "shape": [7, 8, 4], "dtype": "float32"}, {"name": "conv1d_349/bias", "shape": [4], "dtype": "float32"}, {"name": "conv1d_35/kernel", "shape": [3, 4, 4], "dtype": "float32"}, {"name": "conv1d_35/bias", "shape": [4], "dtype": "float32"}, {"name": "conv1d_350/kernel", "shape": [7, 4, 4], "dtype": "float32"}, {"name": "conv1d_350/bias", "shape": [4], "dtype": "float32"}, {"name": "conv1d_351/kernel", "shape": [3, 1, 8], "dtype": "float32"}, {"name": "conv1d_351/bias", "shape": [8], "dtype": "float32"}, {"name": "conv1d_352/kernel", "shape": [3, 8, 4], "dtype": "float32"}, {"name": "conv1d_352/bias", "shape": [4], "dtype": "float32"}, {"name": "conv1d_353/kernel", "shape": [3, 4, 4], "dtype": "float32"}, {"name": "conv1d_353/bias", "shape": [4], "dtype": "float32"}, {"name": "conv1d_354/kernel", "shape": [7, 1, 8], "dtype": "float32"}, {"name": "conv1d_354/bias", "shape": [8], "dtype": "float32"}, {"name": "conv1d_355/kernel", "shape": [7, 8, 4], "dtype": "float32"}, {"name": "conv1d_355/bias", "shape": [4], "dtype": "float32"}, {"name": "conv1d_356/kernel", "shape": [7, 4, 4], "dtype": "float32"}, {"name": "conv1d_356/bias", "shape": [4], "dtype": "float32"}, {"name": "conv1d_357/kernel", "shape": [3, 1, 8], "dtype": "float32"}, {"name": "conv1d_357/bias", "shape": [8], "dtype": "float32"}, {"name": "conv1d_358/kernel", "shape": [3, 8, 4], "dtype": "float32"}, {"name": "conv1d_358/bias", "shape": [4], "dtype": "float32"}, {"name": "conv1d_359/kernel", "shape": [3, 4, 4], "dtype": "float32"}, {"name": "conv1d_359/bias", "shape": [4], "dtype": "float32"}, {"name": "conv1d_36/kernel", "shape": [7, 1, 8], "dtype": "float32"}, {"name": "conv1d_36/bias", "shape": [8], "dtype": "float32"}, {"name": "conv1d_360/kernel", "shape": [7, 1, 8], "dtype": "float32"}, {"name": "conv1d_360/bias", "shape": [8], "dtype": "float32"}, {"name": "conv1d_361/kernel", "shape": [7, 8, 4], "dtype": "float32"}, {"name": "conv1d_361/bias", "shape": [4], "dtype": "float32"}, {"name": "conv1d_362/kernel", "shape": [7, 4, 4], "dtype": "float32"}, {"name": "conv1d_362/bias", "shape": [4], "dtype": "float32"}, {"name": "conv1d_363/kernel", "shape": [3, 1, 8], "dtype": "float32"}, {"name": "conv1d_363/bias", "shape": [8], "dtype": "float32"}, {"name": "conv1d_364/kernel", "shape": [3, 8, 4], "dtype": "float32"}, {"name": "conv1d_364/bias", "shape": [4], "dtype": "float32"}, {"name": "conv1d_365/kernel", "shape": [3, 4, 4], "dtype": "float32"}, {"name": "conv1d_365/bias", "shape": [4], "dtype": "float32"}, {"name": "conv1d_366/kernel", "shape": [7, 1, 8], "dtype": "float32"}, {"name": "conv1d_366/bias", "shape": [8], "dtype": "float32"}, {"name": "conv1d_367/kernel", "shape": [7, 8, 4], "dtype": "float32"}, {"name": "conv1d_367/bias", "shape": [4], "dtype": "float32"}, {"name": "conv1d_368/kernel", "shape": [7, 4, 4], "dtype": "float32"}, {"name": "conv1d_368/bias", "shape": [4], "dtype": "float32"}, {"name": "conv1d_369/kernel", "shape": [3, 1, 8], "dtype": "float32"}, {"name": "conv1d_369/bias", "shape": [8], "dtype": "float32"}, {"name": "conv1d_37/kernel", "shape": [7, 8, 4], "dtype": "float32"}, {"name": "conv1d_37/bias", "shape": [4], "dtype": "float32"}, {"name": "conv1d_370/kernel", "shape": [3, 8, 4], "dtype": "float32"}, {"name": "conv1d_370/bias", "shape": [4], "dtype": "float32"}, {"name": "conv1d_371/kernel", "shape": [3, 4, 4], "dtype": "float32"}, {"name": "conv1d_371/bias", "shape": [4], "dtype": "float32"}, {"name": "conv1d_372/kernel", "shape": [7, 1, 8], "dtype": "float32"}, {"name": "conv1d_372/bias", "shape": [8], "dtype": "float32"}, {"name": "conv1d_373/kernel", "shape": [7, 8, 4], "dtype": "float32"}, {"name": "conv1d_373/bias", "shape": [4], "dtype": "float32"}, {"name": "conv1d_374/kernel", "shape": [7, 4, 4], "dtype": "float32"}, {"name": "conv1d_374/bias", "shape": [4], "dtype": "float32"}, {"name": "conv1d_375/kernel", "shape": [3, 1, 8], "dtype": "float32"}, {"name": "conv1d_375/bias", "shape": [8], "dtype": "float32"}, {"name": "conv1d_376/kernel", "shape": [3, 8, 4], "dtype": "float32"}, {"name": "conv1d_376/bias", "shape": [4], "dtype": "float32"}, {"name": "conv1d_377/kernel", "shape": [3, 4, 4], "dtype": "float32"}, {"name": "conv1d_377/bias", "shape": [4], "dtype": "float32"}, {"name": "conv1d_378/kernel", "shape": [7, 1, 8], "dtype": "float32"}, {"name": "conv1d_378/bias", "shape": [8], "dtype": "float32"}, {"name": "conv1d_379/kernel", "shape": [7, 8, 4], "dtype": "float32"}, {"name": "conv1d_379/bias", "shape": [4], "dtype": "float32"}, {"name": "conv1d_38/kernel", "shape": [7, 4, 4], "dtype": "float32"}, {"name": "conv1d_38/bias", "shape": [4], "dtype": "float32"}, {"name": "conv1d_380/kernel", "shape": [7, 4, 4], "dtype": "float32"}, {"name": "conv1d_380/bias", "shape": [4], "dtype": "float32"}, {"name": "conv1d_381/kernel", "shape": [3, 1, 8], "dtype": "float32"}, {"name": "conv1d_381/bias", "shape": [8], "dtype": "float32"}, {"name": "conv1d_382/kernel", "shape": [3, 8, 4], "dtype": "float32"}, {"name": "conv1d_382/bias", "shape": [4], "dtype": "float32"}, {"name": "conv1d_383/kernel", "shape": [3, 4, 4], "dtype": "float32"}, {"name": "conv1d_383/bias", "shape": [4], "dtype": "float32"}, {"name": "conv1d_384/kernel", "shape": [7, 1, 8], "dtype": "float32"}, {"name": "conv1d_384/bias", "shape": [8], "dtype": "float32"}, {"name": "conv1d_385/kernel", "shape": [7, 8, 4], "dtype": "float32"}, {"name": "conv1d_385/bias", "shape": [4], "dtype": "float32"}, {"name": "conv1d_386/kernel", "shape": [7, 4, 4], "dtype": "float32"}, {"name": "conv1d_386/bias", "shape": [4], "dtype": "float32"}, {"name": "conv1d_387/kernel", "shape": [3, 1, 8], "dtype": "float32"}, {"name": "conv1d_387/bias", "shape": [8], "dtype": "float32"}, {"name": "conv1d_388/kernel", "shape": [3, 8, 4], "dtype": "float32"}, {"name": "conv1d_388/bias", "shape": [4], "dtype": "float32"}, {"name": "conv1d_389/kernel", "shape": [3, 4, 4], "dtype": "float32"}, {"name": "conv1d_389/bias", "shape": [4], "dtype": "float32"}, {"name": "conv1d_39/kernel", "shape": [3, 1, 8], "dtype": "float32"}, {"name": "conv1d_39/bias", "shape": [8], "dtype": "float32"}, {"name": "conv1d_390/kernel", "shape": [7, 1, 8], "dtype": "float32"}, {"name": "conv1d_390/bias", "shape": [8], "dtype": "float32"}, {"name": "conv1d_391/kernel", "shape": [7, 8, 4], "dtype": "float32"}, {"name": "conv1d_391/bias", "shape": [4], "dtype": "float32"}, {"name": "conv1d_392/kernel", "shape": [7, 4, 4], "dtype": "float32"}, {"name": "conv1d_392/bias", "shape": [4], "dtype": "float32"}, {"name": "conv1d_393/kernel", "shape": [3, 1, 8], "dtype": "float32"}, {"name": "conv1d_393/bias", "shape": [8], "dtype": "float32"}, {"name": "conv1d_394/kernel", "shape": [3, 8, 4], "dtype": "float32"}, {"name": "conv1d_394/bias", "shape": [4], "dtype": "float32"}, {"name": "conv1d_395/kernel", "shape": [3, 4, 4], "dtype": "float32"}, {"name": "conv1d_395/bias", "shape": [4], "dtype": "float32"}, {"name": "conv1d_4/kernel", "shape": [3, 8, 4], "dtype": "float32"}, {"name": "conv1d_4/bias", "shape": [4], "dtype": "float32"}, {"name": "conv1d_40/kernel", "shape": [3, 8, 4], "dtype": "float32"}, {"name": "conv1d_40/bias", "shape": [4], "dtype": "float32"}, {"name": "conv1d_41/kernel", "shape": [3, 4, 4], "dtype": "float32"}, {"name": "conv1d_41/bias", "shape": [4], "dtype": "float32"}, {"name": "conv1d_42/kernel", "shape": [7, 1, 8], "dtype": "float32"}, {"name": "conv1d_42/bias", "shape": [8], "dtype": "float32"}, {"name": "conv1d_43/kernel", "shape": [7, 8, 4], "dtype": "float32"}, {"name": "conv1d_43/bias", "shape": [4], "dtype": "float32"}, {"name": "conv1d_44/kernel", "shape": [7, 4, 4], "dtype": "float32"}, {"name": "conv1d_44/bias", "shape": [4], "dtype": "float32"}, {"name": "conv1d_45/kernel", "shape": [3, 1, 8], "dtype": "float32"}, {"name": "conv1d_45/bias", "shape": [8], "dtype": "float32"}, {"name": "conv1d_46/kernel", "shape": [3, 8, 4], "dtype": "float32"}, {"name": "conv1d_46/bias", "shape": [4], "dtype": "float32"}, {"name": "conv1d_47/kernel", "shape": [3, 4, 4], "dtype": "float32"}, {"name": "conv1d_47/bias", "shape": [4], "dtype": "float32"}, {"name": "conv1d_48/kernel", "shape": [7, 1, 8], "dtype": "float32"}, {"name": "conv1d_48/bias", "shape": [8], "dtype": "float32"}, {"name": "conv1d_49/kernel", "shape": [7, 8, 4], "dtype": "float32"}, {"name": "conv1d_49/bias", "shape": [4], "dtype": "float32"}, {"name": "conv1d_5/kernel", "shape": [3, 4, 4], "dtype": "float32"}, {"name": "conv1d_5/bias", "shape": [4], "dtype": "float32"}, {"name": "conv1d_50/kernel", "shape": [7, 4, 4], "dtype": "float32"}, {"name": "conv1d_50/bias", "shape": [4], "dtype": "float32"}, {"name": "conv1d_51/kernel", "shape": [3, 1, 8], "dtype": "float32"}, {"name": "conv1d_51/bias", "shape": [8], "dtype": "float32"}, {"name": "conv1d_52/kernel", "shape": [3, 8, 4], "dtype": "float32"}, {"name": "conv1d_52/bias", "shape": [4], "dtype": "float32"}, {"name": "conv1d_53/kernel", "shape": [3, 4, 4], "dtype": "float32"}, {"name": "conv1d_53/bias", "shape": [4], "dtype": "float32"}, {"name": "conv1d_54/kernel", "shape": [7, 1, 8], "dtype": "float32"}, {"name": "conv1d_54/bias", "shape": [8], "dtype": "float32"}, {"name": "conv1d_55/kernel", "shape": [7, 8, 4], "dtype": "float32"}, {"name": "conv1d_55/bias", "shape": [4], "dtype": "float32"}, {"name": "conv1d_56/kernel", "shape": [7, 4, 4], "dtype": "float32"}, {"name": "conv1d_56/bias", "shape": [4], "dtype": "float32"}, {"name": "conv1d_57/kernel", "shape": [3, 1, 8], "dtype": "float32"}, {"name": "conv1d_57/bias", "shape": [8], "dtype": "float32"}, {"name": "conv1d_58/kernel", "shape": [3, 8, 4], "dtype": "float32"}, {"name": "conv1d_58/bias", "shape": [4], "dtype": "float32"}, {"name": "conv1d_59/kernel", "shape": [3, 4, 4], "dtype": "float32"}, {"name": "conv1d_59/bias", "shape": [4], "dtype": "float32"}, {"name": "conv1d_6/kernel", "shape": [7, 1, 8], "dtype": "float32"}, {"name": "conv1d_6/bias", "shape": [8], "dtype": "float32"}, {"name": "conv1d_60/kernel", "shape": [7, 1, 8], "dtype": "float32"}, {"name": "conv1d_60/bias", "shape": [8], "dtype": "float32"}, {"name": "conv1d_61/kernel", "shape": [7, 8, 4], "dtype": "float32"}, {"name": "conv1d_61/bias", "shape": [4], "dtype": "float32"}, {"name": "conv1d_62/kernel", "shape": [7, 4, 4], "dtype": "float32"}, {"name": "conv1d_62/bias", "shape": [4], "dtype": "float32"}, {"name": "conv1d_63/kernel", "shape": [3, 1, 8], "dtype": "float32"}, {"name": "conv1d_63/bias", "shape": [8], "dtype": "float32"}, {"name": "conv1d_64/kernel", "shape": [3, 8, 4], "dtype": "float32"}, {"name": "conv1d_64/bias", "shape": [4], "dtype": "float32"}, {"name": "conv1d_65/kernel", "shape": [3, 4, 4], "dtype": "float32"}, {"name": "conv1d_65/bias", "shape": [4], "dtype": "float32"}, {"name": "conv1d_66/kernel", "shape": [7, 1, 8], "dtype": "float32"}, {"name": "conv1d_66/bias", "shape": [8], "dtype": "float32"}, {"name": "conv1d_67/kernel", "shape": [7, 8, 4], "dtype": "float32"}, {"name": "conv1d_67/bias", "shape": [4], "dtype": "float32"}, {"name": "conv1d_68/kernel", "shape": [7, 4, 4], "dtype": "float32"}, {"name": "conv1d_68/bias", "shape": [4], "dtype": "float32"}, {"name": "conv1d_69/kernel", "shape": [3, 1, 8], "dtype": "float32"}, {"name": "conv1d_69/bias", "shape": [8], "dtype": "float32"}, {"name": "conv1d_7/kernel", "shape": [7, 8, 4], "dtype": "float32"}, {"name": "conv1d_7/bias", "shape": [4], "dtype": "float32"}, {"name": "conv1d_70/kernel", "shape": [3, 8, 4], "dtype": "float32"}, {"name": "conv1d_70/bias", "shape": [4], "dtype": "float32"}, {"name": "conv1d_71/kernel", "shape": [3, 4, 4], "dtype": "float32"}, {"name": "conv1d_71/bias", "shape": [4], "dtype": "float32"}, {"name": "conv1d_72/kernel", "shape": [7, 1, 8], "dtype": "float32"}, {"name": "conv1d_72/bias", "shape": [8], "dtype": "float32"}, {"name": "conv1d_73/kernel", "shape": [7, 8, 4], "dtype": "float32"}, {"name": "conv1d_73/bias", "shape": [4], "dtype": "float32"}, {"name": "conv1d_74/kernel", "shape": [7, 4, 4], "dtype": "float32"}, {"name": "conv1d_74/bias", "shape": [4], "dtype": "float32"}, {"name": "conv1d_75/kernel", "shape": [3, 1, 8], "dtype": "float32"}, {"name": "conv1d_75/bias", "shape": [8], "dtype": "float32"}, {"name": "conv1d_76/kernel", "shape": [3, 8, 4], "dtype": "float32"}, {"name": "conv1d_76/bias", "shape": [4], "dtype": "float32"}, {"name": "conv1d_77/kernel", "shape": [3, 4, 4], "dtype": "float32"}, {"name": "conv1d_77/bias", "shape": [4], "dtype": "float32"}, {"name": "conv1d_78/kernel", "shape": [7, 1, 8], "dtype": "float32"}, {"name": "conv1d_78/bias", "shape": [8], "dtype": "float32"}, {"name": "conv1d_79/kernel", "shape": [7, 8, 4], "dtype": "float32"}, {"name": "conv1d_79/bias", "shape": [4], "dtype": "float32"}, {"name": "conv1d_8/kernel", "shape": [7, 4, 4], "dtype": "float32"}, {"name": "conv1d_8/bias", "shape": [4], "dtype": "float32"}, {"name": "conv1d_80/kernel", "shape": [7, 4, 4], "dtype": "float32"}, {"name": "conv1d_80/bias", "shape": [4], "dtype": "float32"}, {"name": "conv1d_81/kernel", "shape": [3, 1, 8], "dtype": "float32"}, {"name": "conv1d_81/bias", "shape": [8], "dtype": "float32"}, {"name": "conv1d_82/kernel", "shape": [3, 8, 4], "dtype": "float32"}, {"name": "conv1d_82/bias", "shape": [4], "dtype": "float32"}, {"name": "conv1d_83/kernel", "shape": [3, 4, 4], "dtype": "float32"}, {"name": "conv1d_83/bias", "shape": [4], "dtype": "float32"}, {"name": "conv1d_84/kernel", "shape": [7, 1, 8], "dtype": "float32"}, {"name": "conv1d_84/bias", "shape": [8], "dtype": "float32"}, {"name": "conv1d_85/kernel", "shape": [7, 8, 4], "dtype": "float32"}, {"name": "conv1d_85/bias", "shape": [4], "dtype": "float32"}, {"name": "conv1d_86/kernel", "shape": [7, 4, 4], "dtype": "float32"}, {"name": "conv1d_86/bias", "shape": [4], "dtype": "float32"}, {"name": "conv1d_87/kernel", "shape": [3, 1, 8], "dtype": "float32"}, {"name": "conv1d_87/bias", "shape": [8], "dtype": "float32"}, {"name": "conv1d_88/kernel", "shape": [3, 8, 4], "dtype": "float32"}, {"name": "conv1d_88/bias", "shape": [4], "dtype": "float32"}, {"name": "conv1d_89/kernel", "shape": [3, 4, 4], "dtype": "float32"}, {"name": "conv1d_89/bias", "shape": [4], "dtype": "float32"}, {"name": "conv1d_9/kernel", "shape": [3, 1, 8], "dtype": "float32"}, {"name": "conv1d_9/bias", "shape": [8], "dtype": "float32"}, {"name": "conv1d_90/kernel", "shape": [7, 1, 8], "dtype": "float32"}, {"name": "conv1d_90/bias", "shape": [8], "dtype": "float32"}, {"name": "conv1d_91/kernel", "shape": [7, 8, 4], "dtype": "float32"}, {"name": "conv1d_91/bias", "shape": [4], "dtype": "float32"}, {"name": "conv1d_92/kernel", "shape": [7, 4, 4], "dtype": "float32"}, {"name": "conv1d_92/bias", "shape": [4], "dtype": "float32"}, {"name": "conv1d_93/kernel", "shape": [3, 1, 8], "dtype": "float32"}, {"name": "conv1d_93/bias", "shape": [8], "dtype": "float32"}, {"name": "conv1d_94/kernel", "shape": [3, 8, 4], "dtype": "float32"}, {"name": "conv1d_94/bias", "shape": [4], "dtype": "float32"}, {"name": "conv1d_95/kernel", "shape": [3, 4, 4], "dtype": "float32"}, {"name": "conv1d_95/bias", "shape": [4], "dtype": "float32"}, {"name": "conv1d_96/kernel", "shape": [7, 1, 8], "dtype": "float32"}, {"name": "conv1d_96/bias", "shape": [8], "dtype": "float32"}, {"name": "conv1d_97/kernel", "shape": [7, 8, 4], "dtype": "float32"}, {"name": "conv1d_97/bias", "shape": [4], "dtype": "float32"}, {"name": "conv1d_98/kernel", "shape": [7, 4, 4], "dtype": "float32"}, {"name": "conv1d_98/bias", "shape": [4], "dtype": "float32"}, {"name": "conv1d_99/kernel", "shape": [3, 1, 8], "dtype": "float32"}, {"name": "conv1d_99/bias", "shape": [8], "dtype": "float32"}, {"name": "dense/kernel", "shape": [7128, 1936], "dtype": "float32"}, {"name": "dense/bias", "shape": [1936], "dtype": "float32"}, {"name": "dense_1/kernel", "shape": [1936, 28], "dtype": "float32"}, {"name": "dense_1/bias", "shape": [28], "dtype": "float32"}]}]}